outputs/models/tcn_model.pt (torch, 38998 bytes, 22 tensors)

block1.conv.weight f4 [32, 6, 3]
0.21585819 0.06511096 -0.0695228 0.1466812 -0.09418616 -0.1992312 0.0037326 -0.2204531
-0.16537176 -0.16732016 0.065347664 0.2131311 0.16326761 0.17056365 -0.20366356 -0.16529873
0.027889378 0.1340382 -0.23460132 -0.09667194 -0.2213324 0.07293414 -0.2232906 -0.011478428
0.16520512 0.086954065 0.15325399 -0.18763396 -0.28150755 0.17557271 0.08012912 -0.10555274
-0.06204466 -0.15162404 -0.19422373 0.03784008 0.14143085 0.2355975 -0.10207977 0.1838192
0.12654422 0.15707944 -0.031003399 0.07354398 -0.17684498 -0.15084141 -0.041050833 -0.23121412
0.16298313 0.2041412 0.11776478 0.2025572 -0.15982251 -0.21731521 -0.12290827 -0.031834874
-0.038132753 0.09763732 -0.06751115 0.09759454 0.20945643 0.061318215 0.13718729 -0.1757621
0.20368348 0.11699622 -0.2733859 0.20438363 0.11551524 -0.23826163 0.058774184 -0.24238987
-0.034200504 -0.22173351 0.19618896 -0.13610563 0.21001874 0.027551355 -0.07600769 -0.027297016
-0.19309257 -0.11709406 -0.14057069 0.27439392 -0.12564602 -0.20457916 -0.1826432 -0.061511286
0.029105518 0.11117487 0.02509777 -0.24964525 0.17224972 -0.14670454 0.17601341 0.12325789
0.0022788348 0.07106369 0.09016477 0.119516596 0.03894972 0.2499445 -0.119842984 -0.09770557
-0.09928166 0.005133022 0.20398477 -0.12569398 -0.10386476 -0.0073845037 -0.012939278 0.15413669
0.23051019 -0.08305399 0.23746702 0.17231382 -0.102876805 0.027321452 -0.20191465 -0.15593085
-0.16658308 -0.07198002 -0.0015601044 -0.1105496 0.045623966 0.1262292 0.07527668 0.02490534
0.11004425 -0.115096055 0.0031445234 0.12544635 0.21121286 0.14978524 0.13237563 -0.17995901
0.13839795 -0.13253787 -0.14226836 0.16399054 -0.009137902 0.077432595 -0.031369083 -0.13388485
-0.22962478 0.03353274 0.1418086 -0.08647094 -0.094027095 -0.03026701 -0.119038574 0.048800196
-0.1825262 0.11848531 -0.17471056 -0.15502423 0.10261472 -0.08411183 0.19407457 0.12514512
0.2437558 0.13496737 -0.08758824 0.112548694 0.17915863 -0.22502695 -0.082543515 -0.102636896
-0.07265276 -0.13107875 -0.19971156 0.11334012 -0.19740659 -0.23063019 0.21556243 -0.121764
-0.1606208 -0.21823846 -0.03934507 -0.17391977 0.19193135 0.04135462 0.0789401 0.1822826
0.0884725 0.0018572207 0.1706847 0.2478438 -0.14706795 -0.15425406 -0.046064157 0.12266774
-0.023449333 -0.20393223 -0.10664869 -0.060666684 0.21488564 -0.0339836 -0.074037306 0.03595225
0.0046748514 -0.25043234 -0.10846113 0.007292178 0.040120997 0.08840449 -0.13589312 0.100183934
-0.18619058 -0.07256919 0.11536712 -0.24881904 -0.049067352 0.06161041 -0.1775185 -0.16248645
0.033934534 -0.16250394 -0.18137884 0.18326616 0.044113133 -0.10943978 -0.13918903 0.018465625
-0.20002958 0.13747519 -0.100758836 0.11631316 0.10656787 -0.059480283 -0.084030464 0.061146013
0.1487155 0.15246458 0.15776375 -0.101128824 0.23512694 0.14691322 -0.09903899 -0.1167869
0.25698835 0.14162916 -0.17091236 -0.014408118 0.18385082 -0.059604198 -0.19983117 0.022828106
-0.13066845 0.067168966 0.056905743 0.1597038 0.04735591 -0.06364851 -0.12540156 -0.25504708
00000000: ee09 5d3e e558 853d f861 8ebd 9933 163e
00000010: ace4 c0bd 4403 4cbe a39e 743b 75be 61be
00000020: 3757 29be fa55 2bbe ffd4 853d 0a3f 5a3e
00000030: a02f 273e 3da8 2e3e 2e8d 50be 1244 29be
00000040: 4478 e43c 4f41 093e 543b 70be f0fb c5bd
00000050: f6a4 62be 7f5e 953d 4ba6 64be 0410 3cbc
00000060: 882b 293e f914 b23d 9dee 1c3e 1e23 40be
00000070: c221 90be 55c9 333e bc1a a43d 092c d8bd
00000080: 8b22 7ebd 5543 1bbe 96e2 46be 33fe 1a3d
00000090: 40d3 103e 7940 713e 330f d1bd 1a3b 3c3e
000000a0: cf94 013e 6fd9 203e d7fa fdbc 3a9e 963d
000000b0: da16 35be 2c76 1abe eb24 28bd 65c3 6cbe
000000c0: 0de5 263e 640a 513e a92e f13d 286b 4f3e
000000d0: 83a8 23be e187 5ebe 55b7 fbbd 4965 02bd
000000e0: 1731 1cbd 13f6 c73d 4943 8abd a5df c73d
000000f0: bf7b 563e cf28 7b3d d37a 0c3e fbfa 33be
00000100: 6792 503e b79b ef3d 3df9 8bbe f149 513e
00000110: 4193 ec3d dbfa 73be 33bd 703d 0d35 78be
00000120: d415 0cbd 1c0e 63be c2e5 483e 465f 0bbe
00000130: 270f 573e 61b3 e13c eba9 9bbd fe9d dfbc
00000140: 0fba 45be 03cf efbd c3f1 0fbe 5c7d 8c3e
00000150: 5aa9 00be 337d 51be d206 3bbe 42f3 7bbd
00000160: b26e ee3c a6af e33d d799 cd3c 01a3 7fbe
00000170: 3b62 303e b739 16be dc3c 343e a26e fc3d
00000180: 8158 153b d789 913d 4fa8 b83d 1ec5 f43d
00000190: be89 1f3d 73f1 7f3e 3d70 f5bd dc19 c8bd
000001a0: 2f54 cbbd e932 a83b 62e1 503e ecb5 00be
000001b0: 0cb7 d4bd b5f9 f1bb 44ff 53bc 02d6 1d3e
000001c0: dd0a 6c3e 3618 aabd 8e2a 733e 0973 303e
000001d0: 13b1 d2bd 3dd1 df3c b7c2 4ebe 56ac 1fbe
000001e0: c194 2abe 436a 93bd 6b7c ccba d467 e2bd
000001f0: 32e0 3a3d 3a42 013e a92a 9a3d 4906 cc3c
00000200: e15e e13d 7bb7 ebbd 5914 4e3b 0275 003e
00000210: 2f48 583e 4d61 193e 7a8d 073e 2d47 38be
00000220: 31b8 0d3e 02b8 07be ccae 11be 23ed 273e
00000230: 24b7 15bc fb94 9e3d de7c 00bd 1c19 09be
00000240: c222 6bbe a059 093d 4636 113e ad17 b1bd
00000250: 4791 c0bd 85f2 f7bc 7fca f3bd b7e2 473d
00000260: 26e8 3abe 6da8 f23d 53e7 32be acbe 1ebe
00000270: ab27 d23d d342 acbd 7cbb 463e 0b26 003e
00000280: 1f9b 793e e334 0a3e 7761 b3bd ee7f e63d
00000290: 5c75 373e 776d 66be 930c a9bd 4b33 d2bd
000002a0: f8ca 94bd 8239 06be 3081 4cbe dd1e e83d
000002b0: f424 4abe 522a 6cbe 66bc 5c3e 675f f9bd
000002c0: c779 24be e779 5fbe 4c28 21bd 0618 32be
000002d0: a789 443e 7663 293d 59ab a13d 4aa8 3a3e
000002e0: 1231 b53d fc6d f33a f8c7 2e3e c4ca 7d3e
000002f0: fb98 16be c7f4 1dbe c5ad 3cbd 3939 fb3d
00000300: d118 c0bc 9cd3 50be a16a dabd a17d 78bd
00000310: fb0a 5c3e 6332 0bbd dfa0 97bd ab42 133d
00000320: 7f2f 993b ab38 80be de20 debd 39f3 ee3b
00000330: ea55 243d 6a0d b53d 9127 0bbe 3c2d cd3d
00000340: bea8 3ebe 289f 94bd 9945 ec3d 6bca 7ebe
00000350: d9fa 48bd 335b 7c3d 69c7 35be d962 26be
00000360: f0fe 0a3d 6f67 26be 60bb 39be 20aa 3b3e
00000370: f9af 343d f721 e0bd 9287 0ebe 3945 973c
00000380: 8ed4 4cbe 4cc6 0c3e a65a cebd 9835 ee3d
00000390: 4140 da3d 99a1 73bd 2a18 acbd 3e74 7a3d
000003a0: e048 183e ad1f 1c3e d28c 213e a11c cfbd
000003b0: 1ec5 703e 6b70 163e f4d4 cabd f82d efbd
000003c0: fa93 833e 3c07 113e a603 2fbe 0710 6cbc
000003d0: 6443 3c3e 8823 74bd 8ba0 4cbe 0202 bb3c
000003e0: f3cd 05be e28f 893d ff15 693d 6589 233e
000003f0: 45f8 413d 265a 82bd 4469 00be 8895 82be

block1.conv.bias f4 [32]
0.022338398 0.04190989 0.08302455 -0.12124274 -0.15932116 0.17358464 0.15386592 -0.064329326
0.12290121 0.15486181 -0.12863158 -0.11739471 -0.22909613 -0.13013227 -0.13854463 -0.06822112
-0.06681397 0.07448132 -0.087440625 -0.18740964 0.08076491 -0.06710595 7.595319e-05 -0.22266166
-0.02321505 0.19637762 0.209534 0.05975333 0.017088884 0.19704771 -0.08340068 0.1906826
00000000: 04ff b63c b4a9 2b3d c608 aa3d 1d4e f8bd
00000010: 1625 23be 2cc0 313e 078f 1d3e 18bf 83bd
00000020: a1b3 fb3d 1894 1e3e ffb7 03be a36c f0bd
00000030: 2d98 6abe 6541 05be a5de 0dbe 84b7 8bbd
00000040: c3d5 88bd aa89 983d 1214 b3bd 50e8 3fbe
00000050: 1368 a53d d86e 89bd 0f49 9f38 6b01 64be
00000060: 7d2d bebc 3717 493e 1590 563e e8bf 743d
00000070: fdfd 8b3c e0c6 493e facd aabd 4d42 433e

block1.norm.weight f4 [32]
0.9504537 0.95920885 1.0049567 1.0120512 0.9907873 1.0062363 1.0012352 0.9876058
1.0107764 1.0447094 1.0325992 1.0423976 0.9621498 0.95267487 1.000816 0.9745844
1.0382887 0.97440004 1.0085233 0.9963832 1.0160462 1.0166502 1.0366713 1.0198208
0.99275774 1.0046017 0.98577 0.95744485 1.0094804 1.0195334 0.97877675 0.9757312
00000000: ef50 733f b68e 753f 6ca2 803f e58a 813f
00000010: 3da4 7d3f 5acc 803f 7a28 803f bcd3 7c3f
00000020: 1f61 813f 0ab9 853f 362c 843f 496d 853f
00000030: 734f 763f 80e2 733f bd1a 803f 5d7e 793f
00000040: a5e6 843f 4872 793f 4b17 813f f812 7f3f
00000050: cd0d 823f 9821 823f a5b1 843f 7d89 823f
00000060: 5f25 7e3f ca96 803f 6c5b 7c3f 1b1b 753f
00000070: a736 813f 1280 823f 1d91 7a3f 85c9 793f

block1.norm.bias f4 [32]
-0.040807575 -0.025528954 0.011036695 0.024577329 -0.03674475 -0.011761099 -0.0104237385 -0.0075730993
-0.0059374287 0.048675396 0.046666503 0.016459834 -0.020878872 -0.037278034 -0.019791044 0.008553426
0.04258172 -0.03729573 0.037489012 0.030202564 0.0340543 0.032915004 0.011283614 -0.0052305968
-0.02527925 0.014301245 0.032311667 -0.04323651 0.014697561 0.024596559 -0.026244799 -0.030350136
00000000: d825 27bd 1922 d1bc 41d3 343c 6556 c93c
00000010: aa81 16bd a0b1 40bc 54c8 2abc c327 f8bb
00000020: c38e c2bb da5f 473d 6025 3f3d c6d6 863c
00000030: 2b0a abbc dab0 18bd d420 a2bc ab23 0c3c
00000040: 2b6a 2e3d 68c3 18bd 148e 193d 5e6b f73c
00000050: 867c 0b3d e2d1 063d e8de 383c 6d65 abbb
00000060: 6e16 cfbc c54f 6a3c 3d59 043d c418 31bd
00000070: 0ace 703c b97e c93c 55ff d6bc d9a0 f8bc

block1.norm.running_mean f4 [32]
0.059925914 -0.9086121 0.47657144 -0.50533456 -0.82758677 0.16459635 0.13033105 0.5352851
0.6748933 -0.68047243 0.41742882 -0.8015872 -0.46570575 0.60242623 -0.5283604 -0.50965
-0.27405363 -0.40805897 0.48951128 -0.6639798 0.6482994 0.2052302 -0.08769831 0.55120623
-0.5829772 0.12829007 1.0660936 0.010105953 0.45489305 -0.4731571 0.35689062 0.8832149
00000000: e074 753d cd9a 68bf 2c01 f43e 9b5d 01bf
00000010: badc 53bf f28b 283e 8175 053e 7208 093f
00000020: cfc5 2c3f 7133 2ebf 3bb9 d53e d234 4dbf
00000030: fc70 eebe 9b38 1a3f a142 07bf 6c78 02bf
00000040: c250 8cbe 1bed d0be 39a1 fa3e 95fa 29bf
00000050: f3f6 253f de27 523e 2c9b b3bd da1b 0d3f
00000060: fe3d 15bf 795e 033e c175 883f 7093 253c
00000070: bee7 e83e a641 f2be 5eba b63e 5f1a 623f

block1.norm.running_var f4 [32]
0.20191424 0.20511699 0.27466282 0.26594043 0.1969037 0.23368973 0.15011474 0.15025534
0.27158102 0.19251259 0.23174997 0.14176217 0.15789382 0.2284673 0.26657808 0.14758925
0.1433213 0.15507056 0.14423475 0.24388498 0.36219603 0.22791962 0.13412419 0.17679791
0.14514814 0.15175182 0.16365959 0.15484023 0.1804613 0.15321265 0.15247354 0.19823048
00000000: 9bc2 4e3e 300a 523e 9ba0 8c3e 5829 883e
00000010: 20a1 493e 5c4c 6f3e aeb7 193e 89dc 193e
00000020: ab0c 8b3e 0522 453e dd4f 6d3e 1a2a 113e
00000030: ebae 213e 55f3 693e ec7c 883e a321 173e
00000040: d2c2 123e d1ca 1e3e 46b2 133e fcbc 793e
00000050: c271 b93e c363 693e da57 093e 830a 353e
00000060: b7a1 143e d464 1b3e 6196 273e 708e 1e3e
00000070: d9ca 383e c7e3 1c3e 0622 1c3e eefc 4a3e

block1.downsample.weight f4 [32, 6, 1]
0.17104352 -0.14271155 -0.36182627 -0.29602447 0.21100639 -0.13155946 0.13929765 -0.44684106
0.035502408 0.17945638 0.126687 0.36481607 0.12831612 0.21514782 0.40199924 -0.17761743
0.18506324 -0.15891309 -0.19116062 0.03759519 0.4144118 0.23581517 -0.09245788 0.11876029
0.17243734 -0.08696024 0.33810318 -0.017696507 -0.20407902 0.17120385 0.27824315 0.14858742
-0.20642872 -0.14788704 0.20059076 -0.3052775 -0.326227 0.0605729 -0.040850736 -0.058885124
-0.0023247176 -0.3440316 0.02225735 0.31092724 0.25948843 -0.34342533 0.18519603 -0.2587811
-0.20488015 -0.14381924 0.30662334 -0.12398279 -0.06825654 0.23499908 -0.1513135 0.20453343
-0.16765143 0.20134652 0.35006586 0.3970957 -0.15968254 0.3670527 -0.035025 -0.13087806
0.2854662 -0.061027203 0.3151577 -0.05012859 0.09498999 0.3607635 0.41535708 -0.30383128
0.26568946 -0.22181398 -0.15594408 -0.012067157 -0.067271404 0.22088747 0.034158614 -0.03782333
-0.11415176 0.14386417 -0.036264278 -0.37802643 0.41890237 -0.21529195 0.37271214 -0.3122765
0.047783732 0.17372248 0.012065868 0.35500857 0.2054528 -0.24004525 -0.23565887 0.06858407
-0.019510735 0.40089005 0.34049258 0.051868998 0.30201215 -0.29840383 0.029942954 0.36001334
-0.22533424 0.39504135 0.19328688 0.21185268 0.15530646 0.3602632 0.0953767 -0.0052648713
0.014695155 0.3532967 -0.026217185 -0.21642601 0.35442582 0.29693407 0.13355644 -0.013730535
-0.32166132 0.042750623 0.413573 -0.0073665897 -0.11545812 0.17825995 0.14369552 0.004802385
0.39626744 -0.2190947 -0.15931726 -0.35225505 0.3977272 -0.25241518 -0.18995444 0.003122712
0.13947509 -0.28035966 -0.06698112 0.17011607 0.21458872 0.41750422 0.35439062 -0.30584514
0.25677595 0.22557375 0.3069689 0.056983065 -0.18807441 -0.16214275 0.17429502 0.35090268
-0.20562345 -0.38120055 0.28438276 0.24427192 0.08646646 0.35418478 0.19066009 0.31282836
-0.29394343 0.25010288 -0.075425915 -0.3816053 -0.09324361 0.08148196 -0.3975937 -0.4129119
-0.30246446 -0.17456108 0.14275968 -0.20474507 0.019813128 -0.20547341 -0.10351036 0.21229175
0.01743766 0.3309727 0.41068795 -0.14435503 -0.025402814 3.3399898e-05 0.40639287 0.14492305
-0.298092 -0.29798976 -0.4090559 0.20324096 -0.03284589 0.39897737 0.17619309 0.2810113
00000000: 0826 2f3e fa22 12be 4b41 b9be 8590 97be
00000010: 0f12 583e 86b7 06be 0ba4 0e3e 5ac8 e4be
00000020: f96a 113d 6ac3 373e 3dba 013e 2cc9 ba3e
00000030: 4d65 033e b64f 5c3e d8d2 cd3e 58e1 35be
00000040: 3881 3d3e 1dba 22be 9cbf 43be 6afd 193d
00000050: c92d d43e 8879 713e 8f5a bdbd 9838 f33d
00000060: 6a93 303e 3618 b2bd dc1b ad3e 44f8 90bc
00000070: 17fa 50be 1050 2f3e e375 8e3e 4d27 183e
00000080: 0d62 53be b36f 17be aa67 4d3e 554d 9cbe
00000090: 3a07 a7be 4a1b 783d 1a53 27bd 8731 71bd
000000a0: 4a5a 18bb e924 b0be 0c55 b63c db31 9f3e
000000b0: abdb 843e 72d5 afbe 07a4 3d3e f57e 84be
000000c0: 1acc 51be 5a45 13be bcfd 9c3e b0ea fdbd
000000d0: 16ca 8bbd 99a3 703e edf1 1abe 3671 513e
000000e0: d1ac 2bbe c82d 4e3e d53b b33e 2150 cb3e
000000f0: d283 23be 55ee bb3e 6076 0fbd e604 06be
00000100: a028 923e a9f7 79bd 5a5c a13e a353 4dbd
00000110: 1d8a c23d feb5 b83e afa9 d43e c68f 9bbe
00000120: 7308 883e 3423 63be ceaf 1fbe 53b5 45bc
00000130: 97c5 89bd 5330 623e e7e9 0b3d a3ec 1abd
00000140: 66c8 e9bd 2151 133e da89 14bd ae8c c1be
00000150: 5f7a d63e 7e75 5cbe 20d4 be3e b5e2 9fbe
00000160: e0b8 433d 4ee4 313e ebaf 453c afc3 b53e
00000170: 3862 523e 6cce 75be 8f50 71be ce75 8c3d
00000180: fad4 9fbc 7641 cd3e 0b55 ae3e 9674 543d
00000190: 56a1 9a3e 63c8 98be ed4a f53c ab53 b83e
000001a0: 05be 66be dc42 ca3e ffec 453e e9ef 583e
000001b0: a808 1f3e 6b74 b83e dc54 c33d f184 acbb
000001c0: f3c3 703c 4ee3 b43e 6cc5 d6bc c89e 5dbe
000001d0: 4d77 b53e be07 983e 05c3 083e 0af6 60bc
000001e0: cbb0 a4be 471b 2f3d d7bf d33e 6f63 f1bb
000001f0: 4f75 ecbd c789 363e eb24 133e 535d 9d3b
00000200: 91e3 ca3e 5c5a 60be 1024 23be c65a b4be
00000210: e6a2 cb3e 903c 81be 6b83 42be 6aa6 4c3b
00000220: 8fd2 0e3e 4d8b 8fbe 662d 89bd e832 2e3e
00000230: 25bd 5b3e 1dc3 d53e b072 b53e bc97 9cbe
00000240: 2378 833e cefc 663e 072b 9d3e 1367 693d
00000250: 9496 40be c008 26be 657a 323e 84a9 b33e
00000260: f48e 52be b82c c3be 9e9a 913e 6b22 7a3e
00000270: 5415 b13d b557 b53e 663c 433e 0a2b a03e
00000280: c17f 96be 7c0d 803e e778 9abd c561 c3be
00000290: 81f6 bebd 04e0 a63d 6791 cbbe 3069 d3be
000002a0: 9fdc 9abe 24c0 32be 982f 123e b1a8 51be
000002b0: 244f a23c 9f67 52be 3dfd d3bd 0263 593e
000002c0: 6cd9 8e3c 4175 a93e b145 d23e ced1 13be
000002d0: 9019 d0bc de16 0c38 ba12 d03e b566 143e
000002e0: 849f 98be 1d92 98be c66f d1be 661e 503e
000002f0: 6989 06bd c346 cc3e f66b 343e b7e0 8f3e

block1.downsample.bias f4 [32]
0.05885256 -0.13009939 0.3448001 0.24457859 0.18441595 0.20326 -0.09628309 0.049043328
-0.38934663 -0.30620134 -0.33223644 -0.31558418 -0.062273536 0.097841606 0.30441135 -0.39312676
0.12196719 0.0356542 0.31554958 -0.15734531 -0.31234115 0.12097658 -0.2590707 0.12498874
-0.13209547 0.03919811 0.13657512 0.27359778 0.060930174 0.21293439 -0.19366853 -0.1416586
00000000: 620f 713d c638 05be a489 b03e cf72 7a3e
00000010: 89d7 3c3e 6423 503e 1230 c5bd a8e1 483d
00000020: 7158 c7be 6cc6 9cbe e51a aabe 4094 a1be
00000030: 8912 7fbd 2e61 c83d cedb 9b3e e947 c9be
00000040: efc9 f93d 230a 123d b78f a13e 211f 21be
00000050: 2eeb 9fbe 92c2 f73d eaa4 84be 19fa ff3d
00000060: 0944 07be 338e 203d 59da 0b3e 0215 8c3e
00000070: eb91 793d 790b 5a3e 0b51 46be f40e 11be

block2.conv.weight f4 [32, 32, 3]
0.08468645 -0.039447777 -0.055268634 0.056178518 -0.05523278 -0.04384481 0.052217435 -0.050819922
0.11591848 0.08899537 -0.031045604 0.043836005 -0.08362377 0.034551244 0.055810116 -0.053576753
-0.041943505 -0.08099192 0.053320885 0.0119948825 -0.06919077 0.06762756 -0.03300471 -0.0067085107
0.029253792 -0.103662424 0.029544685 -0.028688904 -0.04398636 0.00902083 -0.056559175 0.035293233
0.04215062 0.08514196 0.02618354 0.065335 0.07935239 0.04925274 0.019054485 0.019584363
0.0043304684 0.07018016 -0.10702147 -0.056847874 -0.04947058 0.0646201 -0.09208751 -0.069390185
-0.1295929 -0.094572715 -0.048034303 0.0798597 -0.028227251 0.014676091 0.09631804 -0.056040615
0.09128003 -0.10245013 0.089236885 -0.037001785 0.060092147 -0.009789708 0.031478778 -0.022898134
0.080655806 -0.03608184 0.050893825 0.1159842 0.072050035 -0.119327016 0.016599847 0.04348715
0.005285161 0.05943671 -0.05087837 -0.005181644 -0.04721187 0.046250556 0.032799058 -0.06682463
-0.050355695 -0.05126585 -0.084593624 -0.04564195 0.00917523 0.021557655 0.014285965 -0.09827887
-0.064329885 0.027005937 -0.10399897 0.053582985 -0.052563015 -0.07583796 -0.037674643 0.045820013
-0.09456951 -0.046016376 0.0041660853 -0.09979133 0.13741425 -0.04409211 -0.06443529 0.021852026
0.07790733 0.052063473 -0.15282191 0.049089853 0.046409693 -0.08887134 0.02626506 0.071126916
0.029814819 0.08034792 -0.029746452 0.06959348 0.0397637 0.045284763 0.024118831 -0.041579466
-0.008911541 0.032075237 0.10224657 0.06147351 0.017885465 0.022523962 -0.048103705 -0.02200926
-0.08135694 0.026756378 -0.06710261 0.09827784 0.0020896918 0.04234538 -0.034256183 -0.03236637
0.020086046 -0.059079275 -0.027722495 0.07601211 -1.7373528e-05 -0.008277353 0.014494706 -0.05152511
0.0291146 0.06345015 0.12713417 0.0564651 0.050554615 -0.013326872 -0.103701666 0.07566773
0.01823471 -0.012659515 0.05578233 -0.00016570705 -0.00020409744 0.057014998 0.06430278 -0.049165983
0.04809484 0.11093913 -0.10145773 0.0025718363 -0.033583477 -0.05333879 0.08133175 -0.065849945
-0.11801249 -0.06395171 0.07117901 0.010366861 -0.07751416 0.03248717 0.028081948 -0.10131575
0.05386675 0.040509854 -0.04558761 0.114349276 -0.013717975 -0.07126815 -0.05477824 0.0019716239
0.06555951 -0.032031048 -0.03272449 0.0596584 0.07519188 0.113471895 -0.04440506 0.058757372
0.09727314 -0.01871607 -0.03259104 0.07541397 -0.0023391817 0.059161387 -0.051867753 -0.08709191
-0.019743824 -0.04888184 -0.010860753 -0.015280255 0.10695771 0.05244722 -0.09656787 0.08675298
-0.0691403 0.08900823 -0.055482466 -0.09609687 0.07367648 0.057069317 0.012445151 -0.046530128
-0.02006324 -0.08672024 -0.0460457 0.031359784 -0.034210306 0.08874667 -0.025395626 -0.00061029324
0.052116625 -0.09482773 -0.00027745185 -0.008863045 0.05416863 0.0188979 -0.010998209 -0.01332896
0.027647885 -0.07582386 -0.023562148 -0.07694002 0.09150117 0.035073947 -0.12488183 -0.050005656
-0.03714929 -0.051441513 0.07210797 0.053918872 0.055513054 0.043769017 0.024622355 0.00034279953
-0.08376367 -0.04757885 0.073751435 0.04494896 -0.054580685 0.058758978 0.06904717 0.030197622
00000000: 1770 ad3d fe93 21bd 5d61 62bd 721b 663d
00000010: c43b 62bd 9e96 33bd f3e1 553d 8d28 50bd
00000020: ab66 ed3d 3443 b63d 5a53 febc 628d 333d
00000030: f042 abbd 9b85 0d3d 2699 643d 4c73 5bbd
00000040: f4cc 2bbd 17df a5bd 0067 5a3d 2f86 443c
00000050: e4b3 8dbd 5180 8a3d f22f 07bd 11d3 dbbb
00000060: a6a5 ef3c f74c d4bd b207 f23c fe04 ebbc
00000070: 0b2b 34bd 1acc 133c 98aa 67bd a38f 103d
00000080: 21a6 2c3d e85e ae3d dd7e d63c 5bce 853d
00000090: 8183 a23d 3ebd 493d 2718 9c3c 636f a03c
000000a0: 9ae6 8d3b 9eba 8f3d 132e dbbd 51d9 68bd
000000b0: aaa1 4abd 8b57 843d 6098 bcbd 711c 8ebd
000000c0: 00b4 04be 57af c1bd 9ebf 44bd 7b8d a33d
000000d0: d63c e7bc fd73 703c 6442 c53d d88a 65bd
000000e0: 06f1 ba3d 60d1 d1bd d4c1 b63d 2f8f 17bd
000000f0: 2f23 763d 0365 20bc e4ef 003d de94 bbbc
00000100: df2e a53d 8dca 13bd 0b76 503d 2089 ed3d
00000110: f88e 933d b961 f4bd 67fc 873c 951f 323d
00000120: 252f ad3b e873 733d d665 50bd c8ca a9bb
00000130: 3c61 41bd 3971 3d3d 4e58 063d 5adb 88bd
00000140: c641 4ebd 24fc 51bd 6c3f adbd 0ef3 3abd
00000150: b453 163c ae99 b03c ae0f 6a3c 6f46 c9bd
00000160: 63bf 83bd 8e3b dd3c 69fd d4bd d579 5b3d
00000170: 514c 57bd ef50 9bbd ba50 1abd c4ad 3b3d
00000180: a9ad c1bd ab7b 3cbd a883 883b 665f ccbd
00000190: 52b6 0c3e ee99 34bd a6f6 83bd 0503 b33c
000001a0: e18d 9f3d 8240 553d 597d 1cbe 7112 493d
000001b0: 1718 3e3d 2d02 b6bd d329 d73c fdaa 913d
000001c0: 353e f43c 738d a43d d5ae f3bc 0787 8e3d
000001d0: 43df 223d 847c 393d db94 c53c 3b4f 2abd
000001e0: b601 12bc 5361 033d a666 d13d a6cb 7b3d
000001f0: 8a84 923c 2c84 b83c 6408 45bd c34c b4bc
00000200: 789e a6bd 3130 db3c 186d 89bd e445 c93d
00000210: 36f3 083b 5972 2d3d 3650 0cbd 9992 04bd
00000220: 7e8b a43c 1cfd 71bd 491a e3bc 3dac 9b3d
00000230: 5ebd 91b7 bc9d 07bc 347b 6d3c fe0b 53bd
00000240: be81 ee3c 27f2 813d 762f 023e f347 673d
00000250: 5b12 4f3d f458 5abc 8a61 d4bd aff7 9a3d
00000260: f560 953c db69 4fbc 037c 643d a6c1 2db9
00000270: fd02 56b9 8f88 693d 2db1 833d 4562 49bd
00000280: 18ff 443d 0e34 e33d 12c9 cfbd 418c 283b
00000290: d48e 09bd c679 5abd 4391 a63d 56dc 86bd
000002a0: 88b0 f1bd 1df9 82bd 4dc6 913d c4d9 293c
000002b0: bebf 9ebd 4411 053d 1d0c e63c a27e cfbd
000002c0: 62a3 5c3d a9ed 253d 13ba 3abd f42f ea3d
000002d0: 5bc1 60bc 09f5 91bd 265f 60bd 5c36 013b
000002e0: 1044 863d fd32 03bd 1d0a 06bd 5e5c 743d
000002f0: 33fe 993d f463 e83d 15e2 35bd 92ab 703d
00000300: 2437 c73d 7252 99bc 2f7e 05bd a472 9a3d
00000310: f54c 19bb 3653 723d 4873 54bd 3e5d b2bd
00000320: cdbd a1bc 5338 48bd 4df1 31bc 095a 7abc
00000330: a50c db3d e5d2 563d 60c5 c5bd 8cab b13d
00000340: 6e99 8dbd f249 b63d 9541 63bd 70ce c4bd
00000350: b2e3 963d 84c1 693d bfe6 4b3c 6096 3ebd
00000360: aa5b a4bc 629a b1bd 6a9a 3cbd 1e73 003d
00000370: 1b20 0cbd d0c0 b53d 7d0a d0bc 16fc 1fba
00000380: 3e78 553d 0a35 c2bd f576 91b9 4e36 11bc
00000390: eddf 5d3d c5cf 9a3c d531 34bc b661 5abc
000003a0: d17d e23c 8a49 9bbd 6805 c1bc bb92 9dbd
000003b0: f764 bb3d b3a9 0f3d 0bc2 ffbd bbd2 4cbd
000003c0: db29 18bd 56b4 52bd 58ad 933d 09da 5c3d
000003d0: a861 633d 2447 333d d2b4 c93c c6b9 b339
000003e0: 498c abbd 0ae2 42bd fe0a 973d 671c 383d
000003f0: ff8f 5fbd 41ad 703d 9a68 8d3d 0161 f73c

block2.conv.bias f4 [32]
-0.027834883 -0.07258427 0.0047413264 0.10156493 0.039221454 0.07245608 0.07523824 0.04608397
0.032789104 0.06546488 0.031220755 -0.027720759 -0.023402981 -0.070049316 0.07521683 0.0009899165
0.04364176 -0.03989465 -0.10338428 0.08581474 -0.031987827 0.011138933 0.055508494 0.07330773
0.075796835 0.07894387 -0.06884534 0.005742948 -0.0052162055 -0.08394163 -0.0876121 0.074028306
00000000: fb05 e4bc 10a7 94bd 215d 9b3b 4601 d03d
00000010: ada6 203d da63 943d 8216 9a3d 8cc2 3c3d
00000020: de4d 063d 7312 863d abc2 ff3c a516 e3bc
00000030: 9cb7 bfbc 0476 8fbd 480b 9a3d 16c0 813a
00000040: b4c1 323d 9368 23bd 23bb d3bd a3bf af3d
00000050: ab05 03bd 1280 363c e05c 633d 5d22 963d
00000060: 5f3b 9b3d 53ad a13d c9fe 8cbd 572f bc3b
00000070: b4ec aabb 97e9 abbd f96d b3bd 279c 973d

block2.norm.weight f4 [32]
0.9880843 1.0082016 0.9727639 1.0003607 0.9951312 1.0358895 1.0226675 0.9869399
1.0046808 1.0592716 1.0994805 1.048232 0.9809565 1.0271605 1.05095 1.0137972
1.0853308 0.98401505 1.0801086 1.0381838 1.0834408 1.0597122 1.042445 1.0656154
1.0049989 1.0126687 1.074317 1.0125624 1.0262336 1.040773 1.0464395 0.97737414
00000000: 18f3 7c3f c00c 813f 0e07 793f d20b 803f
00000010: ebc0 7e3f 0798 843f c5e6 823f 18a8 7c3f
00000020: 6199 803f 3696 873f c7bb 8c3f 772c 863f
00000030: f71f 7b3f ff79 833f 8885 863f 1bc4 813f
00000040: 1fec 8a3f 69e8 7b3f 0041 8a3f 35e3 843f
00000050: 30ae 8a3f a6a4 873f d66e 853f 1666 883f
00000060: cea3 803f 219f 813f 3883 893f a59b 813f
00000070: 9f5b 833f 0d38 853f bbf1 853f 3135 7a3f

block2.norm.bias f4 [32]
-0.03707574 -0.013508258 0.028436864 -0.0013446107 -0.034212586 -0.0064947167 -0.0033133442 -0.026794426
-0.0021535896 0.052173525 0.06918061 0.0281378 -0.0152872335 0.004872621 0.04707158 -0.009470133
0.060394205 -0.029393109 0.04895663 0.034962438 0.058094256 0.02514569 -0.010460265 0.0046462705
-0.0047376347 0.029271804 0.045529015 -0.011997729 0.032030016 0.03131078 0.014706749 -0.033280328
00000000: bbdc 17bd be51 5dbc 6df4 e83c a63d b0ba
00000010: 7f22 0cbd a2d1 d4bb b124 59bb fc7f dbbc
00000020: 3d23 0dbb e8b3 553d 90ae 8d3d 3e81 e63c
00000030: 4e77 7abc 82aa 9f3b 21ce 403d 9e28 1bbc
00000040: ea5f 773d d1c9 f0bc bf86 483d c634 0f3d
00000050: 3ef4 6d3d 56fe cd3c 8861 2bbc be3f 983b
00000060: 293e 9bbb 6ccb ef3c a27c 3a3d 1f92 44bc
00000070: e831 033d bc3f 003d 93f4 703c f450 08bd

block2.norm.running_mean f4 [32]
-0.13727084 0.33652666 -0.4489656 0.50339013 -0.5308086 -0.34292337 -0.19673386 0.25883716
0.8139448 -0.26215753 0.34262425 -0.4348481 0.98951095 -0.578823 -0.032441724 0.28490248
0.115709275 0.19577137 -0.10067286 0.111999154 -0.199565 -0.1818782 0.3066666 0.34738934
-0.5019822 -0.14069314 0.0416945 -0.17401417 -0.019894304 -0.39899018 -0.080977745 0.57562065
00000000: ba90 0cbe 394d ac3e d2de e5be 2dde 003f
00000010: 13e3 07bf a793 afbe 9a74 49be 4e86 843e
00000020: b05e 503f 8339 86be 726c af3e 69a4 debe
00000030: 9750 7d3f be2d 14bf 9de1 04bd bdde 913e
00000040: fcf8 ec3d 4a78 483e 932d cebd d05f e53d
00000050: c45a 4cbe 473e 3abe 6803 9d3e 04dd b13e
00000060: e881 00bf dd11 10be dac7 2a3d c530 32be
00000070: 61f9 a2bc 7148 ccbe a9d7 a5bd e05b 133f

block2.norm.running_var f4 [32]
0.115671344 0.13927823 0.15551853 0.12066587 0.114295095 0.14379176 0.22986597 0.21047944
0.13419947 0.24714176 0.17123751 0.18788378 0.35252348 0.25790268 0.1796221 0.25747508
0.11711835 0.26367283 0.18910448 0.15376276 0.17657825 0.19669433 0.14009976 0.12192317
0.11497368 0.21460252 0.1544726 0.18337797 0.13355502 0.16971703 0.11620673 0.22959037
00000000: 19e5 ec3d f49e 0e3e 4040 1f3e ab1f f73d
00000010: 8c13 ea3d 263e 133e fc61 6b3e ec87 573e
00000020: 966b 093e bb12 7d3e e358 2f3e 9b64 403e
00000030: f57d b43e d20b 843e dbee 373e c6d3 833e
00000040: bfdb ef3d 2000 873e 9ba4 413e fc73 1d3e
00000050: eed0 343e 3d6a 493e 5076 0f3e dbb2 f93d
00000060: 5277 eb3d c3c0 5b3e 112e 1e3e 6fc7 3b3e
00000070: a6c2 083e 4dca 2d3e cbfd ed3d bd19 6b3e

block3.conv.weight f4 [32, 32, 3]
-0.16959696 -0.05758588 -0.033340145 -0.056387004 0.0702358 -0.07489389 0.018257737 0.05085739
0.02220284 0.020066494 0.034782957 -0.09329536 -0.036897063 0.0057803793 0.018210756 0.04553267
0.0050099557 0.033474684 -0.031215169 0.00674736 0.009626241 -0.02358079 0.033412922 0.08247032
0.05428679 0.073758006 -0.027233984 -0.11144676 -0.04038681 0.07624059 -0.061684303 -0.009419456
0.018828114 0.06341741 -0.050524097 -0.09559871 -0.03440295 -0.084760614 -0.093587 -0.061814193
0.041990228 0.06421259 -0.0021769963 -0.07562661 0.047983326 -0.03375482 0.028525043 0.027068853
-0.027937561 0.057410404 0.022181531 0.05110602 -0.08178349 -0.098547995 -0.096715875 0.054791287
-0.0014229765 0.04751347 -0.010154595 0.011927524 -0.005463274 0.077504 0.0029558255 0.0064428397
0.017086409 -0.011848015 0.1014002 0.034393024 -0.05366783 0.042158116 -0.064639814 -0.10428088
-0.03351947 0.08011969 -0.0205593 -0.054080043 0.10321258 0.047826804 -0.091803014 0.079666264
-0.05066301 -0.02217847 -0.05465947 0.009426101 -0.045090735 0.054022558 -0.04916211 0.053056885
0.08857467 -0.050400436 -0.01313035 -0.06614173 0.060958534 -0.05668778 0.032330308 -0.039179705
-0.060801174 -0.07864201 0.055416152 0.034593623 -0.10836973 -0.048829217 0.079135604 -0.0706115
-0.054017734 -0.08400596 0.03207484 -0.09284879 0.0002238544 -0.091038115 -0.089059226 0.00819191
0.021740071 0.03622604 -0.054804966 -0.022058157 -0.09256131 0.047511864 -0.03423074 0.03066322
-0.036904022 -0.0483121 0.035771776 0.03276092 0.09283906 0.0034413289 0.10304737 0.07876548
0.016630922 0.05772623 0.07257735 -0.048340827 0.010568847 0.06548213 0.07638389 -0.07104438
-0.058526695 -0.046770617 -0.056771036 -0.079740845 0.0081825005 0.07445263 -0.042567845 -0.04884109
0.01404739 0.08256617 0.020004617 0.0074641486 0.016116846 -0.061313275 0.06205983 -0.08032768
-0.029519329 0.045206837 -0.0026627667 0.06176625 -0.0622811 0.15717721 0.10562416 0.041595113
-0.10359973 0.058400176 -0.01113391 0.028227432 0.0055818316 -0.067860544 0.11068851 0.073940866
-0.10095777 -0.0815763 -0.034242075 -0.08431796 -0.097441964 0.095148735 -0.00047691958 -0.085575946
-0.022734877 0.049774826 0.08515532 0.09421619 0.06317793 -0.018967746 0.050363548 0.008398142
0.10336043 -0.014753084 0.07166416 -0.053855594 -0.13280395 -0.05919104 0.030462109 -0.044964276
-0.018071562 -0.08949775 0.07811132 0.015368404 0.102058075 -0.07230178 0.08894054 0.027087962
-0.07029993 -0.0055179046 0.026397686 0.019322496 0.06365838 -0.020017412 -0.07107794 0.0055671944
0.0018159702 -0.08864059 0.060180724 0.025851114 -0.05003875 0.0702083 -0.048266537 0.07050788
0.0065313564 0.016933983 -0.056032535 0.057518765 0.06675431 0.09124746 0.0042036595 -0.0612331
-0.06952111 -0.044856086 -0.040811177 -0.083170466 -0.036317367 -0.081357904 0.017481443 -0.04607096
0.00084798626 -0.075076245 -0.116988465 -0.043730654 -0.07945496 -0.047808524 0.019624507 0.07813304
0.08407845 -0.09059287 -0.064352 0.07745857 0.109572984 -0.10474196 -0.0032238904 0.054918952
-0.102328785 0.09473409 0.049044024 0.08221452 -0.0042322814 -0.030477388 0.03402559 -0.01320104
00000000: d3aa 2dbe 2cdf 6bbd ad8f 08bd 0ff6 66bd
00000010: cad7 8f3d f861 99bd 4091 953c d74f 503d
00000020: bbe2 b53c 7d62 a43c 9378 0e3d a311 bfbd
00000030: 6021 17bd 5669 bd3b b92e 953c 7780 3a3d
00000040: 8e2a a43b c01c 093d f4b6 ffbc f518 dd3b
00000050: 62b7 1d3c 802c c1bc fddb 083d 33e6 a83d
00000060: d35b 5e3d 700e 973d ce19 dfbc 333e e4bd
00000070: a46c 25bd 0724 9c3d aea8 7cbd 1054 1abc
00000080: 6b3d 9a3c fde0 813d 5bf2 4ebd 42c9 c3bd
00000090: 1cea 0cbd f996 adbd 8baa bfbd e130 7dbd
000000a0: f2fd 2b3d e481 833d f0ab 0ebb 20e2 9abd
000000b0: 2a8a 443d 7e42 0abd 5aad e93c 80bf dd3c
000000c0: 50dd e4bc 2c27 6b3d 0bb6 b53c 8c54 513d
000000d0: 1a7e a7bd 88d3 c9bd f912 c6bd d46c 603d
000000e0: 2b83 baba 7c9d 423d 755f 26bc a96b 433c
000000f0: 4405 b3bb 6bba 9e3d 86b6 413b 751e d33b
00000100: ccf8 8b3c 2d1e 42bc e8aa cf3d b3df 0c3d
00000110: ccd2 5bbd fdad 2c3d e161 84bd 3791 d5bd
00000120: b64b 09bd cb15 a43d fa6b a8bc 0983 5dbd
00000130: 1e61 d33d 0ae6 433d 3803 bcbd 1128 a33d
00000140: 0484 4fbd 9faf b5bc 9ce2 5fbd ef6f 1a3c
00000150: 10b1 38bd c246 5d3d 355e 49bd 2d52 593d
00000160: a366 b53d b070 4ebd ae20 57bc 5175 87bd
00000170: a8af 793d 7231 68bd c96c 043d e67a 20bd
00000180: a70a 79bd 100f a1bd 0cfc 623d 0bb2 0d3d
00000190: f3f0 ddbd 2501 48bd d911 a23d c39c 90bd
000001a0: b341 5dbd 510b acbd e860 033d 8227 bebd
000001b0: 75ba 6a39 3172 babd af64 b6bd 5c37 063c
000001c0: 3c18 b23c c261 143d 2c7b 60bd 4fb3 b4bc
000001d0: c990 bdbd cd9b 423d 8835 0cbd 6f31 fb3c
000001e0: ac28 17bd e9e2 45bd 6d85 123d 5030 063d
000001f0: 6822 be3d eb87 613b 800a d33d cc4f a13d
00000200: 923d 883c 5772 6c3d 6fa3 943d 0801 46bd
00000210: f528 2d3c 7f1b 863d 286f 9c3d b77f 91bd
00000220: b0b9 6fbd 8c92 3fbd bf88 68bd 2b4f a3bd
00000230: e50f 063c 9f7a 983d 9f5b 2ebd 980d 48bd
00000240: 0627 663c 7418 a93d b9e0 a33c d195 f43b
00000250: 7a07 843c a123 7bbd 7332 7e3d d782 a4bd
00000260: 85d2 f1bc ce2a 393d d081 2ebb 9bfe 7c3d
00000270: 771a 7fbd 10f3 203e 7b51 d83d a35f 2a3d
00000280: 182c d4bd 0635 6f3d 016b 36bc 373d e73c
00000290: cce7 b63b 78fa 8abd a8b0 e23d 4f6e 973d
000002a0: f3c2 cebd 7a11 a7bd 6b41 0cbd e5ae acbd
000002b0: a78f c7bd 57dd c23d 100b fab9 7142 afbd
000002c0: 7e3e babc b0e0 4b3d ea65 ae3d 6bf4 c03d
000002d0: 6e63 813d 3f62 9bbc 024a 4e3d 5c98 093c
000002e0: a2ae d33d ebb6 71bc a9c4 923d af97 5cbd
000002f0: c2fd 07be 4e72 72bd ac8b f93c 762c 38bd
00000300: d00a 94bc 994a b7bd d4f8 9f3d c2cb 7b3c
00000310: d303 d13d f512 94bd 7526 b63d 93e7 dd3c
00000320: 69f9 8fbd 8acf b4bb f63f d83c 364a 9e3c
00000330: 535f 823d 8efb a3bc 5091 91bd 036d b63b
00000340: d905 ee3a 3389 b5bd 1080 763d b7c5 d33c
00000350: 6ff5 4cbd 5fc9 8f3d 22b3 45bd 6f66 903d
00000360: fd04 d63b 23b9 8a3c 5f82 65bd cc98 6b3d
00000370: 7cb6 883d f3df ba3d dabe 893b 8fcf 7abd
00000380: 1561 8ebd 04bb 37bd 9f29 27bd 4755 aabd
00000390: 85c1 14bd f99e a6bd 3e35 8f3c e7b4 3cbd
000003a0: 654b 5e3a 93c1 99bd a697 efbd ea1e 33bd
000003b0: 48b9 a2bd dfd2 43bd 93c3 a03c 3704 a03d
000003c0: 5331 ac3d c188 b9bd fbca 83bd 99a2 9e3d
000003d0: cd67 e03d f482 d6bd e847 53bb b2f2 603d
000003e0: c191 d1bd f203 c23d 63e2 483d 1660 a83d
000003f0: f3ae 8abb b7ab f9bc 6b5e 0b3d 2d49 58bc

block3.conv.bias f4 [32]
0.0064586448 -0.044800166 -0.053292286 0.0850628 0.10239108 -0.06081111 0.0229478 -0.038272545
-0.0980335 0.0015036726 -0.07024694 -0.016114358 0.018423432 -0.09281231 0.09096802 0.065346405
0.04531989 0.03639434 -0.0015575236 0.02020187 0.09044316 0.09463872 0.044418912 -0.0430309
0.06816092 0.015609156 0.006639534 0.034624457 0.06938813 0.06886494 0.047434665 -0.062272992
00000000: 0aa3 d33b 6180 37bd 0349 5abd 6835 ae3d
00000010: 6ab2 d13d 1215 79bd 06fd bb3c acc3 1cbd
00000020: cac5 c8bd e116 c53a a1dd 8fbd 4202 84bc
00000030: bdec 963c 6114 bebd 714d ba3d 56d4 853d
00000040: 59a1 393d 3b12 153d d225 ccba 647e a53c
00000050: 433a b93d f2d1 c13d 9bf0 353d 2b41 30bd
00000060: f497 8b3d 8cbd 7f3c 7390 d93b 60d2 0d3d
00000070: 5d1b 8e3d 1009 8d3d da4a 423d f711 7fbd

block3.norm.weight f4 [32]
1.0151244 0.9989715 1.1238986 1.063396 0.9906635 1.0468842 1.0919502 1.0578609
1.0089647 1.0818039 1.0951029 1.0821011 1.0605427 1.022652 1.088302 1.1416137
1.0895426 0.98317295 1.08504 1.1023246 1.0643275 1.0874879 1.069365 1.0826585
1.0475202 1.1134151 1.1060219 0.9945595 1.0274612 1.0988928 1.1091647 1.0001479
00000000: 99ef 813f 99bc 7f3f e9db 8f3f 5c1d 883f
00000010: 209c 7d3f 4d00 863f 06c5 8b3f fc67 873f
00000020: c125 813f 8d78 8a3f 552c 8c3f 4a82 8a3f
00000030: ddbf 873f 43e6 823f 7b4d 8b3f 6620 923f
00000040: 2276 8b3f 39b1 7b3f 97e2 8a3f f918 8d3f
00000050: e23b 883f ce32 8b3f f4e0 883f 8e94 8a3f
00000060: 2415 863f 6384 8e3f 2092 8d3f 749b 7e3f
00000070: d983 833f 85a8 8c3f 1cf9 8d3f d904 803f

block3.norm.bias f4 [32]
-0.03353756 -0.028288154 0.07402975 0.054706294 -0.02157634 7.522691e-05 0.02580463 0.0059918044
-0.0035132684 0.06600761 0.07118835 0.05953359 0.00798887 -0.038887825 0.039681725 0.07497937
0.06500996 -0.019918634 0.05969837 0.066215664 0.052808307 0.052369557 0.02234177 0.036607105
-0.016331125 0.057891518 0.06167924 -0.015201175 0.016256174 0.057951417 0.05605344 -0.021909254
00000000: ae5e 09bd 8fbc e7bc e99c 973d b513 603d
00000010: ddc0 b0bc 24c3 9d38 3b64 d33c e656 c43b
00000020: dd3e 66bb ff2e 873d 33cb 913d 7ed9 733d
00000030: c0e3 023c d748 1fbd 4e89 223d c98e 993d
00000040: f123 853d 672c a3bc 4786 743d 149c 873d
00000050: 864d 583d 7681 563d 1606 b73c 55f1 153d
00000060: dac8 85bc a81f 6d3d 5fa3 7c3d 590e 79bc
00000070: ab2b 853c 775e 6d3d 4b98 653d 097b b3bc

block3.norm.running_mean f4 [32]
-0.33712202 -0.573554 -0.7519269 1.0035295 -0.47356865 0.2403748 -0.3239061 0.19087061
-0.15342735 0.58978343 -0.04700581 0.5272454 0.1174743 -0.18146499 0.12407832 -0.29121992
0.1663878 -1.0247927 -0.7174778 0.13253547 0.3349771 0.6145347 -0.0853122 0.34290934
-0.524155 -0.49845386 0.07524261 -0.391106 0.26072773 0.3949673 -0.40442795 -0.47779256
00000000: 429b acbe 6fd4 12bf 487e 40bf a873 803f
00000010: 9777 f2be d024 763e 05d7 a5be 9673 433e
00000020: 0f1c 1dbe 0cfc 163f 2a89 40bd 8ef9 063f
00000030: 5e96 f03d f5d1 39be c61c fe3d c71a 95be
00000040: 9061 2a3e 682c 83bf a0ac 37bf 61b7 073e
00000050: 1e82 ab3e 2552 1d3f 2ab8 aebd d091 af3e
00000060: 062f 06bf 5835 ffbe cc18 9a3d 0c3f c8be
00000070: 1b7e 853e 2739 ca3e 2e11 cfbe 3aa1 f4be

block3.norm.running_var f4 [32]
0.30157852 0.3223424 0.24103796 0.22513428 0.3102782 0.29149047 0.17182976 0.35467955
0.23537123 0.2775063 0.34195155 0.2845224 0.18240564 0.23693937 0.29507318 0.21854304
0.23653919 0.5333727 0.23752628 0.27779245 0.35213974 0.28864783 0.2842512 0.21427055
0.2892789 0.24092 0.247887 0.46011272 0.19747595 0.17443062 0.15448557 0.27123705
00000000: 8068 9a3e 100a a53e a8d2 763e 9a89 663e
00000010: c9dc 9e3e 3d3e 953e 24f4 2f3e 8f98 b53e
00000020: 2805 713e 4e15 8e3e 4614 af3e ecac 913e
00000030: 8bc8 3a3e 3ca0 723e d513 973e bfc9 5f3e
00000040: 5437 723e 1d8b 083f 173a 733e d03a 8e3e
00000050: a94b b43e a6c9 933e 6089 913e bd69 5b3e
00000060: 5d1c 943e bcb3 763e 17d6 7d3e e593 eb3e
00000070: 2337 4a3e f19d 323e 7731 1e3e 95df 8a3e

fc.weight f4 [6, 32]
0.1488874 -0.1372638 0.16553901 -0.061559644 -0.032844804 -0.036711603 0.07547341 -0.09566992
-0.08096429 -0.039415054 -0.10266807 0.14203636 0.034460224 -0.06393311 0.20813736 -0.17991659
-0.0426211 0.038841855 0.21158655 0.16316995 0.11387684 -0.12805992 0.21753423 0.2073321
-0.058378693 -0.0644859 0.23494303 0.06228871 0.05560052 0.09005532 -0.12779391 -0.069583125
-0.13047023 0.07263738 0.023634965 -0.1738288 0.0298188 0.051690053 -0.0783657 -0.010830377
-0.1247641 -0.0069600646 -0.19274588 0.014493408 -0.1607301 0.12387331 -0.0428609 -0.13117436
0.06841224 -0.042328786 -0.12609518 0.0038838706 0.037855998 -0.2152808 0.11187275 0.13219216
-0.20848085 -0.22876857 0.020663327 0.06645148 -0.03564611 -0.15156174 -0.10208889 -0.17857935
-0.15586522 -0.016255913 0.16628274 -0.038227502 -0.1290863 -0.08399715 0.17239222 0.027323402
-0.14916354 -0.015512616 0.036366895 -0.12578458 0.20007108 0.21067595 0.17284636 -0.12892866
0.033242673 -0.103118576 0.04212797 -0.0008786131 0.08498924 -0.0029868288 -0.15094732 -0.1460821
0.18035966 0.08027422 0.11366811 -0.17926912 -0.080189 0.08494014 0.12119408 -0.17268248
0.13841853 -0.15141194 -0.19252805 0.13464327 0.040938813 0.14320464 0.06781494 -0.15629624
-0.04831591 -0.1486833 -0.15601848 -0.14939128 0.13402206 -0.15169288 -0.08388444 -0.011482406
-0.014518718 0.06602621 -0.22253753 -0.18636546 -0.07319807 0.13809037 -0.10997135 0.044717286
0.015538351 -0.14810733 -0.083499186 -0.11068375 -0.0996205 -0.08942147 -0.007025118 0.13689709
0.088257514 0.1522996 -0.09461482 -0.04367465 -0.1480866 0.031124976 0.2541777 0.034964144
-0.15563004 0.20826223 -0.05312974 0.16908817 -0.07680593 0.21512441 -0.083684996 0.111802
0.23906203 -0.058241658 0.19943309 0.10072434 0.14897595 0.049362976 -0.06961259 -0.15595578
-0.13329038 -0.09497696 0.023419918 0.032978453 -0.15605533 -0.0069313953 -0.1550737 0.00743209
-0.13753441 -0.0723423 -0.049822323 0.1713897 -0.107709005 0.13487723 -0.17056406 0.010743312
0.14900945 0.1300654 0.22502054 0.05800828 -0.047824778 -0.14409924 -0.011996902 0.16564791
0.16233756 -0.12326593 0.021354618 -0.037115406 0.16370076 0.21006103 0.11527679 0.20755097
-0.09122368 0.04372577 -0.005594363 -0.07838113 0.13177921 -0.028690955 0.19062367 -0.11664958
00000000: f075 183e e28e 0cbe 0f83 293e f725 7cbd
00000010: 4688 06bd e85e 16bd ce91 9a3d 97ee c3bd
00000020: 9bd0 a5bd ae71 21bd a343 d2bd fb71 113e
00000030: 2a26 0d3d 5def 82bd f621 553e 0e3c 38be
00000040: 7693 2ebd a318 1f3d 25aa 583e 0616 273e
00000050: 4338 e93d 2422 03be 4bc1 5e3e de4e 543e
00000060: 7f1e 6fbd 2f11 84bd e894 703e 7222 7f3d
00000070: 5fbd 633d ec6e b83d 68dc 02be 9981 8ebd
00000080: fd99 05be e8c2 943d 1d9e c13c 2d00 32be
00000090: 8e46 f43c f3b8 533d 327e a0bd e571 31bc
000000a0: 5284 ffbd 4111 e4bb 2d5f 45be c275 6d3c
000000b0: 6e96 24be 4ab1 fd3d e98e 2fbd 9252 06be
000000c0: b71b 8c3d f360 2dbd 181f 01be 8988 7e3b
000000d0: e40e 1b3d 9272 5cbe 8a1d e53d 625d 073e
000000e0: 017c 55be 4f42 6abe 2346 a93c b717 883d
000000f0: a801 12bd 0033 1bbe fb13 d1bd 81dd 36be
00000100: 229b 1fbe 1f2b 85bc 0646 2a3e 7194 1cbd
00000110: 332f 04be b306 acbd 9687 303e 54d5 df3c
00000120: 54be 18be a128 7ebc 74f5 143d accd 00be
00000130: 6fdf 4c3e 70bb 573e a3fe 303e e005 04be
00000140: 7829 083d d52f d3bd 618e 2c3d ba52 66ba
00000150: d70e ae3d acbe 43bb ef91 1abe 8c96 15be
00000160: 34b0 383e cf66 a43d d3ca e83d 5392 37be
00000170: 213a a4bd 19f5 ad3d 9a34 f83d add3 30be
00000180: 96bd 0d3e bb0b 1bbe 1326 45be eddf 093e
00000190: 75af 273d 3da4 123e 8fe2 8a3d 1f0c 20be
000001a0: e7e6 45bd 6f40 18be 4fc3 1fbe 07fa 18be
000001b0: 143d 093e 6155 1bbe 9bcb abbd b420 3cbc
000001c0: ebdf 6dbc c038 873d e1e0 63be 96d6 3ebe
000001d0: dfe8 95bd 9067 0d3e a938 e1bd 7929 373d
000001e0: 9194 7e3c 73a9 17be 9f01 abbd 29ae e2bd
000001f0: d505 ccbd 9b22 b7bd f632 e6bb c02e 0c3e
00000200: 5bc0 b43d 6df4 1b3e 6ac5 c1bd 31e4 32bd
00000210: 03a4 17be cef9 fe3c 9423 823e 9036 0f3d
00000220: 7b5d 1fbe b242 553e 929e 59bd 7325 2d3e
00000230: 6d4c 9dbd 9349 5c3e 0a63 abbd 72f8 e43d
00000240: adcc 743e ce8e 6ebd 3038 4c3e 9048 ce3d
00000250: 278d 183e d530 4a3d 0c91 8ebd dfb2 1fbe
00000260: 467d 08be 4883 c2bd 21db bf3c 6a14 073d
00000270: f8cc 1fbe c220 e3bb a4cb 1ebe e488 f33b
00000280: d2d5 0cbe 3328 94bd 7e12 4cbd c880 2f3e
00000290: 8a96 dcbd 421d 0a3e 58a8 2ebe b704 303c
000002a0: ef95 183e dd2f 053e c96b 663e 179a 6d3d
000002b0: eae3 43bd c08e 13be a78e 44bc 9b9f 293e
000002c0: d13b 263e d972 fcbd e1ef ae3c 5306 18bd
000002d0: 2ca1 273e 3d1a 573e 3d16 ec3d 3e88 543e
000002e0: 7bd3 babd cb19 333d eb50 b7bb 4986 a0bd
000002f0: 21f1 063e 4b09 ebbc da32 433e fae5 eebd

fc.bias f4 [6]
-0.05347602 -0.09948068 0.18251659 0.10305776 0.016535271 0.07466083
00000000: ac09 5bbd 87bc cbbd a1e5 3a3e f20f d33d
00000010: fa74 873c c7e7 983d
