outputs/models/tcn_model.pt (torch, 38998 bytes, 22 tensors)

block1.conv.weight f4 [32, 6, 3]
0	0x3cc4c887	0.0240214
1	0x3bed9a00	0.0072510242
2	0xbe534168	-0.20630419
3	0x3e1ae2c7	0.15125571
4	0x3d212498	0.03934154
5	0xbd007e17	-0.03137025
6	0x3e66bdbe	0.22533318
7	0xbe4994fd	-0.19685741
8	0x3e551355	0.20808156
9	0x3e2f1ed4	0.17101604
10	0xbd89b832	-0.067245856
11	0xbd82a299	-0.06378669
12	0x3e1bb2a6	0.15204868
13	0x3e3b2157	0.18274437
14	0x3e7fa2e6	0.24964485
15	0x3df1b56b	0.11802181
16	0x3e1831ea	0.1486279
17	0x3da14dc1	0.078761585
18	0xbe65d1dc	-0.22443336
19	0xbe47f380	-0.19526482
20	0x3aa7ec86	0.0012811578
21	0x3e2655b0	0.16243625
22	0xbe947b02	-0.29000098
23	0xbd445912	-0.047936507
24	0xbe137b53	-0.14402513
25	0xbd97746d	-0.07395253
26	0xbe0c0442	-0.13673499
27	0xbe673d81	-0.22582056
28	0x3e438b94	0.19096214
29	0x3d79eb09	0.061015163
30	0xbdba9a73	-0.0911149
31	0x3de69752	0.11259331
32	0xbe50b837	-0.20382772
33	0x3ce96247	0.028489245
34	0x3c2c59e6	0.01051948
35	0xbd2661ef	-0.04062074
36	0x3e25457c	0.16139787
37	0x3cc8efaa	0.024528343
38	0x3e376c28	0.17912352
39	0xbde02f21	-0.10946489
40	0x3e2a753c	0.16646284
41	0xbdb281bd	-0.08716152
42	0x3ddc04c4	0.107430965
43	0x3e723e51	0.23656584
44	0xbe042ac1	-0.12906934
45	0x3dc7cbfd	0.097557046
46	0x3e1c4ef9	0.152645
47	0x3da967be	0.082717404
48	0x3e2e3ae3	0.17014651
49	0x3dbeaffd	0.09310911
50	0x3e2fde0b	0.17174546
51	0xbca61c64	-0.02027721
52	0x3e32c185	0.17456634
53	0x3e017d5c	0.12645477
54	0x3c369dea	0.011146048
55	0xbe0fb028	-0.14032042
56	0x3dba9f7c	0.091124505
57	0x3d52e211	0.051485125
58	0x3e5266d4	0.20547038
59	0x3e0ec28a	0.13941398
60	0x3e58e11a	0.2117962
61	0x3e4dc14e	0.20093271
62	0x3e043fc2	0.12914947
63	0x3e08db8c	0.13365
64	0x3e49c15c	0.19702667
65	0x3e5e4707	0.21706782
66	0xbdeaaa44	-0.11458257
67	0xbca4ce94	-0.020118035
68	0x3e05677a	0.13027754
69	0x3e36b379	0.17841901
70	0xbe06813c	-0.13135237
71	0xbcdc6905	-0.026905546
72	0xbe235f3d	-0.159543
73	0xbe3201e2	-0.1738353
74	0x3d5c47c2	0.05377937
75	0x3e0bd283	0.13654523
76	0xbd888398	-0.066657245
77	0x3bfb82cc	0.0076755043
78	0xbddde9cb	-0.10835608
79	0xbdbf2c6a	-0.09334643
80	0xbe3c6f9a	-0.18401948
81	0xbe20dce1	-0.15709259
82	0xbd9cc1b2	-0.07654132
83	0x3e1c13e8	0.15241969
84	0x3da245ed	0.079234935
85	0x3d585166	0.052812003
86	0x3a650bc9	0.0008737413
87	0x3dda5af9	0.10661883
88	0x3e46861f	0.193871
89	0x3d12f2e7	0.03587618
90	0xbda7aa9e	-0.081868395
91	0x3e41f550	0.18941236
92	0x3d830b4f	0.06398641
93	0x3e397a6a	0.18113104
94	0x3c79590f	0.015218987
95	0xbd88a9de	-0.066730246
96	0x3e40c991	0.18826891
97	0x3df7018a	0.120608404
98	0x3da952db	0.082677566
99	0xbde49c45	-0.111626185
100	0x3d928407	0.071540885
101	0xbddf135a	-0.10892363
102	0x3e40ce8a	0.18828788
103	0xbcaf1524	-0.021372385
104	0xbdd6c9bb	-0.10487696
105	0xbdba0f88	-0.090849936
106	0xbe416156	-0.18884787
107	0xbdb09572	-0.086222544
108	0x3cd861f3	0.026413893
109	0xbe2c68dd	-0.16836877
110	0x3dc0014d	0.09375248
111	0xbcd75089	-0.02628352
112	0x3b450e39	0.0030068292
113	0xbe3c68cc	-0.18399352
114	0x3c5a09d0	0.013308004
115	0x3dcdaca5	0.10042695
116	0x3d90982b	0.07060274
117	0xbe16e877	-0.14737116
118	0xbe82ae7c	-0.25523746
119	0x3e111351	0.14167525
120	0x3d1fa12d	0.03897207
121	0x3e6785c4	0.22609621
122	0x3dd96d90	0.106166005
123	0xbd9a8dad	-0.07546554
124	0xbe0ef624	-0.13961083
125	0xbe046a79	-0.12931241
126	0xbe6da6e1	-0.2320819
127	0xbe3012fd	-0.17194743
128	0x3e17052b	0.14748065
129	0x3e6c7a9e	0.2309365
130	0xbe342b18	-0.17594564
131	0x3dbd8546	0.092539355
132	0x3dd6b5be	0.10483883
133	0x3dff9f2b	0.12481531
134	0xbd4df7e9	-0.050285254
135	0x3e85a82d	0.2610487
136	0x3d81555e	0.063151106
137	0x3e12f649	0.14351763
138	0xbe2665fb	-0.1624984
139	0xbd848e20	-0.06472421
140	0x3e533a0b	0.2062761
141	0x3d2b66bd	0.041846026
142	0xbdecb2c5	-0.11557535
143	0x3dc0272d	0.09382472
144	0xbd3c5e55	-0.0459884
145	0xbc9aa82f	-0.018879024
146	0xbd8d2318	-0.06891459
147	0x3e5b6e1b	0.2142872
148	0xbca8c864	-0.020603366
149	0xbde51ad4	-0.11186758
150	0xbd9a3d04	-0.07531169
151	0xbe2c0d28	-0.16801894
152	0x3d34960e	0.044088416
153	0xbd05bd7f	-0.03265142
154	0xbd8816ee	-0.066449985
155	0x3d5cba64	0.053888693
156	0x3e743f15	0.23852189
157	0x3db97f15	0.09057442
158	0x3e7281a3	0.23682265
159	0x3dabc289	0.08386714
160	0xbda1121f	-0.078647844
161	0x3de04c04	0.10951999
162	0x3e7f43eb	0.24928252
163	0x3d185746	0.037192605
164	0x3d9c2faa	0.07626279
165	0xbde283c6	-0.1106029
166	0xbe35eacc	-0.17765349
167	0x3e1ca53a	0.15297404
168	0x3e69c7a5	0.22830065
169	0x3d8a866f	0.067639224
170	0x3cd78ccb	0.026312253
171	0x3e24f95b	0.16110747
172	0xbce01d27	-0.02735765
173	0x3dde985d	0.10868905
174	0x3db51291	0.08841432
175	0xbc12340a	-0.00892354
176	0xbde257b6	-0.11051886
177	0x3d2ee965	0.04270305
178	0xbe26963b	-0.16268246
179	0x3de99f05	0.11407284
180	0xbe101b2d	-0.14072867
181	0xbe6ebb7b	-0.23313706
182	0xbc2b2976	-0.010446897
183	0x3d517e6a	0.05114595
184	0xbe0de627	-0.13857327
185	0x3c635192	0.013874428
186	0xbd64c836	-0.055855
187	0xbde2be03	-0.11071398
188	0x3e652f05	0.22381218
189	0xbe1cecba	-0.15324679
190	0xbe026196	-0.12732539
191	0x3d76f780	0.06029463
192	0x3e0b3838	0.13595665
193	0xbdb8182a	-0.08988984
194	0xbdae27c0	-0.085036755
195	0xbca144e5	-0.019686172
196	0x3d201bd6	0.039089046
197	0xbdcb10e2	-0.099153295
198	0xbe3e1dce	-0.18566057
199	0x3e729ecb	0.23693387
200	0x3d582b34	0.052775577
201	0x3e398593	0.18117361
202	0xbe3088e9	-0.17239727
203	0xbe75d747	-0.24007903
204	0xbcf8b8bc	-0.030361526
205	0xbe4234b6	-0.1896542
206	0x3e679128	0.22613966
207	0xbe3eb5af	-0.18623994
208	0xbdbdbe7a	-0.09264846
209	0x3d3b0803	0.045661937
210	0x3e270442	0.16310218
211	0x3e41c944	0.18924433
212	0xbdce49ff	-0.100727074
213	0x3db4b076	0.0882272
214	0x3d6b1c5a	0.057400085
215	0xbde60b3b	-0.11232611
216	0xbdebc4ad	-0.11512122
217	0xbdd0f728	-0.10203391
218	0x3d124807	0.035713222
219	0x3e0a5a33	0.13510971
220	0x3ca0f907	0.019649995
221	0xbe59f07c	-0.21283144
222	0x3d8ebe9b	0.06969949
223	0xbe322b61	-0.1739936
224	0x3e21e509	0.15810026
225	0x3de7d049	0.11319024
226	0xbdac905e	-0.08425973
227	0x3df043b6	0.11731665
228	0x3db4a1a9	0.08819897
229	0xbe4d3274	-0.20038778
230	0x3e3bce2e	0.1834037
231	0xbe16da8b	-0.14731805
232	0xbddc95aa	-0.10770734
233	0xbe55604c	-0.20837516
234	0xbe005943	-0.1253405
235	0x3d03f239	0.032213423
236	0xbe01f791	-0.12692095
237	0xbce334f0	-0.027735204
238	0xbe043c48	-0.1291362
239	0x3dd0ed0e	0.102014646
240	0x3dcebe97	0.10094946
241	0xbe5ee6f5	-0.2176779
242	0xbe554660	-0.20827627
243	0xbdc5557f	-0.09635448
244	0xbd9dbdf3	-0.077022456
245	0xbe5eb43c	-0.21748441
246	0x3e233b00	0.15940475
247	0xbe0442f5	-0.12916167
248	0x3e311668	0.17293704
249	0x3e46bc39	0.19407739
250	0x3e4f16d1	0.20223548
251	0x3d7e1528	0.062031895
252	0xbe1addde	-0.15123698
253	0xbdeb1d5f	-0.114802115
254	0x3e13d580	0.14436913
255	0x3c10f347	0.008847064

block1.conv.bias f4 [32]
0	0xbe2b43e7	-0.16725121
1	0xbd247126	-0.04014697
2	0xbe398a9e	-0.18119285
3	0x3d86c82e	0.0658115
4	0xbdf670b0	-0.12033212
5	0x3e3c9270	0.18415236
6	0xbc24e1d9	-0.010063612
7	0x3e24714c	0.16058844
8	0x3dba0925	0.090837754
9	0xbba7abc2	-0.0051169107
10	0x3e1b8601	0.15187837
11	0x3e323f20	0.17406893
12	0xbc701f91	-0.0146559635
13	0x3ac5a064	0.0015077707
14	0x3e51b1cf	0.20477985
15	0xbc51a315	-0.012795229
16	0x3e413d01	0.18870927
17	0x3d49f5fd	0.04930686
18	0xbdf2dac5	-0.11858133
19	0xbc09c16b	-0.008407931
20	0x3d334e10	0.043775618
21	0xbc7a8caa	-0.015292326
22	0x3e5ef021	0.2177129
23	0x3e0e564a	0.13900104
24	0xbe66cd3a	-0.22539225
25	0x3e1fa9e4	0.15592152
26	0x3e67adaf	0.22624849
27	0x3d730b38	0.05933687
28	0x3d749f1d	0.059722055
29	0x3bde6078	0.0067864023
30	0x3e082367	0.13294755
31	0xbe09170d	-0.133877

block1.norm.weight f4 [32]
0	0x3f84d101	1.0376283
1	0x3f7dfcf2	0.9921409
2	0x3f8505a7	1.039235
3	0x3f73ee54	0.95285535
4	0x3f81e0c4	1.0146718
5	0x3f81fd28	1.0155382
6	0x3f7aabd3	0.9791843
7	0x3f773f20	0.96580696
8	0x3f72da1f	0.94864076
9	0x3f80db06	1.0066841
10	0x3f7b9b87	0.9828419
11	0x3f81ce2a	1.0141041
12	0x3f7f4c44	0.9972575
13	0x3f7e13f8	0.9924922
14	0x3f786f7e	0.97045124
15	0x3f77c8d8	0.9679084
16	0x3f81b3c2	1.0132983
17	0x3f808030	1.003912
18	0x3f778045	0.966801
19	0x3f77acc7	0.9674801
20	0x3f7ba63b	0.9830052
21	0x3f7afb75	0.9803994
22	0x3f6e60d6	0.9311651
23	0x3f80bea4	1.0058179
24	0x3f804090	1.0019703
25	0x3f84c08e	1.0371263
26	0x3f80d6b4	1.0065522
27	0x3f7b7e2a	0.98239386
28	0x3f7da41e	0.9907855
29	0x3f7182ea	0.94340384
30	0x3f72c468	0.9483094
31	0x3f800a4e	1.0003145

block1.norm.bias f4 [32]
0	0x3c88b5a0	0.016688168
1	0x3c1f5c24	0.009726558
2	0x3d5601db	0.052247863
3	0x3bc5203b	0.006015805
4	0xbcb13370	-0.021630973
5	0x3d3b95d6	0.04579719
6	0xbc7a798f	-0.015287771
7	0xbd45f399	-0.048328016
8	0xbd27e970	-0.040994108
9	0xbce293f7	-0.027658446
10	0xbc3e3c50	-0.011611059
11	0x3cce7c10	0.025205642
12	0xbc958b23	-0.018254822
13	0xbcd444d6	-0.02591173
14	0xba598ed4	-0.0008299176
15	0xbd2032fd	-0.039111126
16	0x3c22af4c	0.009929489
17	0xbbfa5bd2	-0.0076403404
18	0xbd2186f5	-0.039435346
19	0xbd49f462	-0.049305327
20	0x3a1800fa	0.00057984854
21	0xbcd04cac	-0.025427185
22	0xbd4e11d5	-0.050309975
23	0x3b9efc84	0.0048518796
24	0x3bc950f0	0.0061436817
25	0x3c994537	0.018709762
26	0xbce66743	-0.02812541
27	0x3c2980f7	0.010345689
28	0xbc99b15a	-0.018761326
29	0xbd232822	-0.039833196
30	0xbd323679	-0.04350898
31	0x3d5beb18	0.053691

block1.norm.running_mean f4 [32]
0	0x3f0c5f7c	0.548332
1	0xbf50aa01	-0.81509405
2	0x3f685510	0.90754795
3	0x3efe9941	0.49726298
4	0xbe68723c	-0.22699827
5	0x3e8d6dc1	0.27622798
6	0xbdb2fb91	-0.08739389
7	0x3df056c5	0.117353
8	0x3e9b1e72	0.30296665
9	0x3f096194	0.5366452
10	0xbea03356	-0.31289166
11	0x3edc5621	0.4303446
12	0xbf118d82	-0.5685655
13	0x3ddbed35	0.10738603
14	0x3e6df7ad	0.23239012
15	0x3e0993c1	0.1343527
16	0x3e9d9c11	0.30783132
17	0x3eed74a4	0.46378052
18	0x3dcf1419	0.10111255
19	0x3e958835	0.2920548
20	0x3f1762eb	0.5913531
21	0xbf10846f	-0.5645208
22	0xbe280d90	-0.16411424
23	0xbe41f2d1	-0.18940283
24	0x3e719ef8	0.23595798
25	0x3e68057e	0.22658345
26	0x3ea5caba	0.3238123
27	0x3e6e4630	0.23268962
28	0x3ea31b58	0.318568
29	0x3dac4793	0.08412089
30	0x3f2f68c4	0.68519235
31	0xbf3956b9	-0.72397953

block1.norm.running_var f4 [32]
0	0x3e402732	0.18764952
1	0x3de41614	0.111370236
2	0x3e087445	0.13325603
3	0x3de5770d	0.11204348
4	0x3de51673	0.111859225
5	0x3dc54d75	0.096339144
6	0x3d9981ad	0.07495437
7	0x3e14f44a	0.14546314
8	0x3dde5b67	0.10857277
9	0x3dd1075b	0.10206481
10	0x3dd94c2a	0.1061023
11	0x3e4bf82f	0.19918893
12	0x3dd8c979	0.10585303
13	0x3e33a682	0.17543986
14	0x3dd87125	0.105684556
15	0x3e055f62	0.13024667
16	0x3e107d82	0.14110377
17	0x3df545c3	0.119761966
18	0x3e3c5f5c	0.18395752
19	0x3de498c6	0.11161952
20	0x3df8483c	0.121231526
21	0x3e086b75	0.13322242
22	0x3dc5aae4	0.096517354
23	0x3e372be7	0.17887841
24	0x3e38aecb	0.18035428
25	0x3e264700	0.16238022
26	0x3e2aca87	0.1667882
27	0x3e1f8864	0.15579373
28	0x3ddb4b1e	0.10707687
29	0x3e0e9b15	0.13926347
30	0x3db0144f	0.085976236
31	0x3e290adf	0.16508053

block1.downsample.weight f4 [32, 6, 1]
0	0x3ed9aac4	0.42513096
1	0x3e8b4dd6	0.27207822
2	0xbe49b810	-0.1969912
3	0xbdb249d6	-0.08705489
4	0x3dc8afe9	0.09799177
5	0x3e8994c8	0.26871324
6	0x3dfac25c	0.12244102
7	0x3e6ddb65	0.23228224
8	0x3d6ea0f6	0.058258973
9	0x3e01154e	0.12605783
10	0xbeb0094b	-0.3438209
11	0xbe033d64	-0.12816387
12	0xbe38fb58	-0.1806463
13	0x3e828d0a	0.2549823
14	0x3d94217d	0.0723295
15	0x3e8d6222	0.27613932
16	0x3e60f0c9	0.21966852
17	0x3eaa6abd	0.3328456
18	0x3e303a43	0.17209725
19	0x3e70d8a4	0.23520142
20	0xbd72ded3	-0.059294533
21	0x3e6c9a8e	0.23105833
22	0xbcb459f9	-0.022015559
23	0xbe7204c2	-0.23634627
24	0xbdac36ee	-0.084089145
25	0xbec0f6de	-0.37688345
26	0x3e987123	0.29773816
27	0xbe5633ef	-0.20918249
28	0xbe5d04d9	-0.2158388
29	0x3e6b5c88	0.22984517
30	0xbc807348	-0.01567997
31	0xbea32aa8	-0.31868482
32	0x3bcec899	0.006310534
33	0x3d3632df	0.04448211
34	0x3ea65e01	0.32493594
35	0xbca7cda8	-0.020483807
36	0x3d48cebd	0.049025286
37	0xbe8d16b6	-0.2755639
38	0x3ec22747	0.3792059
39	0x3e21b11b	0.15790217
40	0x3d82cc38	0.06386608
41	0x3ebf6010	0.37377977
42	0x3e986a0a	0.297684
43	0xbd74b6a0	-0.059744477
44	0x3cc09ae5	0.02351136
45	0xbe5b6fec	-0.21429414
46	0xbe021f81	-0.1270733
47	0xbe3d32fa	-0.18476477
48	0xbeb15cc0	-0.34641075
49	0x3e934b8d	0.28768578
50	0x3c823514	0.01589445
51	0xbd0f9dca	-0.03506259
52	0xbe4685a1	-0.19386913
53	0xbeda670b	-0.4265674
54	0xbed225ca	-0.41044456
55	0x3e05d7c3	0.13070588
56	0x3d822122	0.06353976
57	0x3e3c6609	0.18398298
58	0x3dc9c62c	0.098522514
59	0xbeb81b03	-0.35958108
60	0x3e9f1f16	0.31078404
61	0xbd01f2ec	-0.03172581
62	0xbe8cefb1	-0.2752662
63	0xbee02548	-0.43778443
64	0xbe407984	-0.18796355
65	0x3e7c6992	0.24649647
66	0xbe8757e9	-0.26434258
67	0x3e99f509	0.3006976
68	0x3b14ccb4	0.002270502
69	0xbb764d00	-0.0037582517
70	0x3dd5f65f	0.10447382
71	0xbbeba4a9	-0.00719126
72	0x3e4bf53a	0.19917765
73	0x3d262807	0.040565517
74	0xbe9363bd	-0.28787032
75	0x3dfe2fea	0.12411483
76	0x3dbb70a5	0.091523446
77	0x3e999fc2	0.30004698
78	0xbe1f1e43	-0.15538888
79	0xbbc3324a	-0.0059569227
80	0xbce847c6	-0.028354537
81	0x3ec05513	0.37564906
82	0xbea8ec91	-0.32992986
83	0xbc98f063	-0.018669313
84	0xbe3359e3	-0.17514758
85	0xbe92ad39	-0.28647783
86	0xbe42a572	-0.19008425
87	0xbe5dfbef	-0.21678136
88	0xbeb1c9d6	-0.347243
89	0x3e5e302f	0.21698068
90	0xbbf9b3f8	-0.007620331
91	0xbdabdc96	-0.08391683
92	0xbdf681f7	-0.120365076
93	0xbd42c02d	-0.047546554
94	0x3dfd1148	0.12356812
95	0x3e9062e9	0.28200462
96	0xbe29d5cd	-0.16585465
97	0xbc9eeed4	-0.019400991
98	0x3e692ecf	0.22771762
99	0xbe937ed0	-0.28807688
100	0x3ed45a1e	0.41475004
101	0xbe62e620	-0.22158098
102	0xba44f0b1	-0.00075126725
103	0x3e61eba8	0.22062552
104	0xbeaa4d1e	-0.3326196
105	0xbee5ed86	-0.44907779
106	0xbe79becf	-0.24389194
107	0x3eb38c1b	0.3506783
108	0x3e935949	0.28779057
109	0x3de2b6a9	0.11069996
110	0x3e4cde4e	0.20006678
111	0xbdba8694	-0.091077
112	0xbd12edde	-0.03587138
113	0x3d833f7a	0.064085916
114	0xbeb8dbe6	-0.3610527
115	0xbb6df77c	-0.0036310842
116	0xb9e34679	-0.0004334932
117	0xbd2ec447	-0.042667653
118	0x3c836f62	0.016044322
119	0xbe3340fb	-0.17505257
120	0xbe2c9534	-0.16853791
121	0xbd8cf1b5	-0.068820395
122	0xbdce199e	-0.1006348
123	0x3ebe6bcf	0.37191626
124	0xbe2876a5	-0.1645151
125	0x3dc6918d	0.0969573
126	0x3e05d418	0.13069189
127	0xbd88a152	-0.066713944
128	0x3d3f0759	0.046637867
129	0xbe078122	-0.13232854
130	0x3d5d8bfc	0.054088578
131	0xbe920412	-0.2851873
132	0x3e0c10fb	0.13678353
133	0x3d9742b9	0.07385773
134	0x3e1a4075	0.15063651
135	0x3e16d80e	0.14730856
136	0x3e5e06f0	0.21682334
137	0xbd78561d	-0.060629
138	0xbd9e1fd4	-0.077209145
139	0x3d84690a	0.06465347
140	0x3e0a8cad	0.13530226
141	0x3ea7f7bf	0.32806203
142	0x3e2be603	0.16786961
143	0x3e20ebbe	0.15714929
144	0x3ce8cda6	0.028418373
145	0xbe6ef2af	-0.23334764
146	0xbe5f7fcf	-0.21826099
147	0x3e38cfc4	0.18048006
148	0xbd86c40b	-0.06580361
149	0x3de3eb7f	0.11128902
150	0xbe41e78e	-0.18935987
151	0xbea19939	-0.31562212
152	0xbe933b4e	-0.28756183
153	0x3e016ca4	0.126391
154	0xbeb635ea	-0.35588008
155	0xbeaee84a	-0.34161597
156	0xbcfe179c	-0.031017117
157	0xbda3de20	-0.08001351
158	0xbecdab74	-0.4016987
159	0xbed78f91	-0.4210172
160	0x3dcda2b7	0.10040801
161	0x3ea2e0f3	0.31812248
162	0xbe793ff3	-0.24340801
163	0xbea29734	-0.31755984
164	0x3ec8683b	0.39142022
165	0x3c5aa047	0.013343877
166	0x3d03da32	0.03219051
167	0x3e888fc9	0.266722
168	0x3eac90b4	0.3370415
169	0xbd6a6e49	-0.057234082
170	0x3e09f761	0.13473274
171	0x3dba29a3	0.09089973
172	0x3eb8fa8d	0.36128655
173	0x3e2dad1b	0.16960566
174	0x3d5cdf2e	0.05392378
175	0xbe669d42	-0.22520927
176	0x3df4abbd	0.11946819
177	0x3d932c7c	0.07186219
178	0x3e0e1cd4	0.13878185
179	0xbd7f0f07	-0.06227019
180	0xbd4d1284	-0.050066486
181	0x3e4e95bb	0.20174305
182	0x3e8406ac	0.2578634
183	0x3d56836f	0.05237144
184	0xbe00250d	-0.12514134
185	0xbe9b0cf4	-0.3028332
186	0x3d15523a	0.03645537
187	0x3e8bbe0d	0.27293435
188	0x3e34859e	0.17629096
189	0xbe982366	-0.29714507
190	0xbe21a2c2	-0.15784743
191	0x3d5569a6	0.052102707

block1.downsample.bias f4 [32]
0	0xbeb38148	-0.3505957
1	0xbcb660aa	-0.02226289
2	0xbe868cd6	-0.26279324
3	0xbe691d99	-0.22765197
4	0xbe857c6c	-0.2607149
5	0xbe3c928e	-0.18415281
6	0xbe2074aa	-0.15669504
7	0x3d169ebc	0.036772475
8	0xbe6b7c88	-0.22996724
9	0xbeb58ec6	-0.3546049
10	0x3e900c86	0.28134555
11	0xbd6db32e	-0.058032207
12	0xbda5a2ec	-0.080877155
13	0xbe0624f8	-0.1310004
14	0x3e6345d0	0.221946
15	0xbd902386	-0.070380256
16	0x3b15d5eb	0.00228631
17	0xbd664d42	-0.056226023
18	0x3e3e051e	0.1855664
19	0xbdd59260	-0.104283094
20	0xba441eb9	-0.00074813847
21	0x3e00154f	0.12508129
22	0xbe56d8b8	-0.20981109
23	0x3ec41b5c	0.38302124
24	0xbe53baf0	-0.2067678
25	0xbe331ee4	-0.17492253
26	0xbe4f776a	-0.20260397
27	0x3eb1884f	0.34674308
28	0xbdef9c04	-0.116996795
29	0x3e0d8546	0.13820371
30	0xbd49d020	-0.04927075
31	0xbe12f2b6	-0.143504

block2.conv.weight f4 [32, 32, 3]
0	0xbd765d28	-0.060147434
1	0x3d96c592	0.07361902
2	0xbcce2bc0	-0.025167346
3	0x3d359087	0.044327285
4	0x3d87e016	0.06634538
5	0xbd51dd34	-0.051236346
6	0x3caee321	0.021348538
7	0x3da8d03e	0.08242844
8	0xbbf5f1b5	-0.0075056204
9	0x384a1600	4.8181042e-05
10	0xbd9ebdf8	-0.077510774
11	0xbdb1de1f	-0.08684944
12	0xbdc0bb6a	-0.094107464
13	0x3c7c4ff1	0.015399919
14	0x3d3d2edb	0.046187263
15	0x3d23ba52	0.03997261
16	0x3d19ddbc	0.037564978
17	0xbd0011c2	-0.031266935
18	0xbd7530b1	-0.05986089
19	0x3dc1744b	0.09446009
20	0xbd630f35	-0.055434424
21	0x3dea5a42	0.114429966
22	0x3da11802	0.07865907
23	0x3c637d68	0.01388488
24	0xbcd6a5b4	-0.02620206
25	0xbdbd0a7a	-0.09230514
26	0x3c043a04	0.008070473
27	0x3dbdee15	0.09273926
28	0x3c0045c9	0.007829138
29	0x3c4867d2	0.012231784
30	0xbd880d37	-0.066431455
31	0xbdce7169	-0.10080225
32	0x3d5369c2	0.05161453
33	0x3db34ed4	0.0875527
34	0xbcd1e227	-0.025620533
35	0x3db6d389	0.08927066
36	0x3d4ba47a	0.049717404
37	0xbd290690	-0.041266024
38	0xbd9d356a	-0.076762035
39	0xbd10923d	-0.035295714
40	0x3c2a8298	0.010407113
41	0xbd87d3fd	-0.066322304
42	0x3dc6c845	0.09706167
43	0xbce5ab63	-0.028035825
44	0x3b1b6c95	0.0023715843
45	0x3da157bd	0.07878063
46	0xbc490b54	-0.012270767
47	0x3d995894	0.07487598
48	0xbda26b0a	-0.07930572
49	0x3d72c499	0.05926952
50	0xbce66cb3	-0.028128004
51	0xbc9b92b8	-0.01899086
52	0xbda37c82	-0.07982732
53	0x3d5b2502	0.05350209
54	0x3d94f5ac	0.07273421
55	0xbdafdea4	-0.08587387
56	0xbc9a3f88	-0.018829122
57	0xbd98b9b4	-0.07457295
58	0x3ddfb0b4	0.10922375
59	0x3d8a6851	0.06758178
60	0xbd8e168b	-0.069378935
61	0x3d31d652	0.043417282
62	0x3d6813ef	0.056659635
63	0x3d0f0fcb	0.03492717
64	0xbc9eb53d	-0.01937353
65	0xbd0c69a3	-0.03428043
66	0x3b958706	0.004563215
67	0x3de490eb	0.111604534
68	0xbd7a80b6	-0.061157905
69	0x3d2bbda0	0.041928887
70	0x3dbc0358	0.09180325
71	0x3d8ccf97	0.06875532
72	0xbd4b7b12	-0.049677916
73	0x3d8ec37c	0.069708794
74	0xbcf45a7d	-0.029828304
75	0xbbbefea9	-0.0058286977
76	0xbdadb2d9	-0.08481378
77	0xbcecc1a5	-0.02890093
78	0x3d9c3cb9	0.076287694
79	0xbc5f72ac	-0.01363818
80	0x3d8aa430	0.067695975
81	0xbdd11f53	-0.10211053
82	0x3cbd8877	0.02313636
83	0xbdeb49f4	-0.11488715
84	0xbdc7a908	-0.09749037
85	0x3c5ffc63	0.0136710135
86	0xbc2b193d	-0.010443029
87	0x3bbb99ae	0.005725107
88	0xbbe70c8c	-0.0070510563
89	0x3c81de26	0.015852999
90	0xbd8b9541	-0.06815577
91	0x3c948e07	0.01813413
92	0xbdaa1822	-0.08305384
93	0x3df7a027	0.120910935
94	0xbbdaf464	-0.0066819657
95	0xbda9cadd	-0.08290646
96	0xbd07337e	-0.03300809
97	0xbb81e034	-0.0039634947
98	0xbd9b9b47	-0.07597976
99	0xbda1cfcb	-0.079009615
100	0x3c93fa6a	0.018063743
101	0xbe085776	-0.13314614
102	0xbd85e3f4	-0.06537619
103	0x3db65fd3	0.08904996
104	0xbd94cb05	-0.072652854
105	0x3cb441ae	0.022003975
106	0xbd7af831	-0.06127185
107	0x3d7666bd	0.060156573
108	0xbb3c5ae3	-0.0028740696
109	0x3bff0fde	0.007783874
110	0x3c805936	0.01566754
111	0xbd1f215c	-0.038850173
112	0x3da1676f	0.078810565
113	0xbdc26df7	-0.094936304
114	0xbdbacdc7	-0.0912128
115	0xbd0cd39f	-0.034381505
116	0xbbed0f15	-0.007234464
117	0xbd1fd726	-0.03902354
118	0x3d7132ee	0.05888646
119	0x3d11e033	0.035614204
120	0xbdbbf532	-0.09177627
121	0xbdb9097b	-0.090350114
122	0xbcaf1dcd	-0.021376515
123	0x3ce1e9da	0.02757733
124	0x3cf3ea37	0.029774768
125	0xbdf04a6b	-0.11732944
126	0x3d46f9b2	0.04857797
127	0x3d02718e	0.031846575
128	0xbd1270bf	-0.035752054
129	0x3cf5d46b	0.030008515
130	0x3cddbd8c	0.027067922
131	0x3cdf75cf	0.027277855
132	0x3d12e2b9	0.03586075
133	0xbd428c92	-0.04749734
134	0xbcb45d6f	-0.022017209
135	0xbce19dcb	-0.027541062
136	0xbc9251f3	-0.017861342
137	0xbccfd968	-0.025372222
138	0xbd5c6c4e	-0.053814225
139	0xbd97ecd3	-0.074182175
140	0xbdd7f597	-0.105448894
141	0xbd22442e	-0.039615802
142	0xbd5cb838	-0.053886622
143	0xbd6b0b9c	-0.05738412
144	0xbb71b614	-0.0036882209
145	0xbcdc6ff2	-0.026908848
146	0x3d23307c	0.03984116
147	0x3caac181	0.020844223
148	0x3cda1db5	0.026625494
149	0x3cd3521f	0.025795994
150	0x3dd572e1	0.10422302
151	0x3c8b7a6f	0.017026154
152	0xbb4eac91	-0.0031535963
153	0xbce728ce	-0.0282177
154	0x3d974b30	0.07387388
155	0xbd4be2b6	-0.049776755
156	0x3cc5c62d	0.02414235
157	0xbcdc14be	-0.02686536
158	0xbddc354c	-0.10752353
159	0xbd3e86dc	-0.04651533
160	0xbd31fbd1	-0.04345304
161	0xbc8ef8c2	-0.017452601
162	0x3a02d861	0.00049913494
163	0x3bc70ab8	0.006074276
164	0x3de2cda4	0.11074379
165	0xbddec686	-0.10877709
166	0x3d733a8a	0.059382
167	0xbd025e69	-0.031828318
168	0x3dba2f6a	0.09091075
169	0xbccaa076	-0.024734717
170	0xbdb07427	-0.08615904
171	0xbdd1524d	-0.10220776
172	0x3cf17c5e	0.029478248
173	0x3d2018c2	0.03908611
174	0xbd85938f	-0.06522285
175	0xbd144edc	-0.03620802
176	0xbd6e1d77	-0.05813357
177	0x3d717306	0.058947586
178	0xbd813bc0	-0.063102245
179	0xbcbe69de	-0.02324384
180	0x3d86ffcb	0.065917574
181	0xbe09d152	-0.13458756
182	0xbd2d8dc4	-0.042371526
183	0x3df863df	0.12128424
184	0x3d3502a6	0.04419198
185	0x3d838b5f	0.06423067
186	0xbda65199	-0.08121032
187	0xbcdb8ab7	-0.026799543
188	0xbd2a2c11	-0.04154593
189	0xbd84237b	-0.0645208
190	0x3d6b20ae	0.057404213
191	0x3c48984a	0.01224334
192	0xbd3162f4	-0.04330726
193	0x3d92a96e	0.071612224
194	0x3d9bacb3	0.07601299
195	0xbdd5d105	-0.10440258
196	0x3cd71650	0.026255757
197	0xbdfec10e	-0.12439166
198	0x3d35f85c	0.044426307
199	0x3bf7cf03	0.0075625195
200	0xbda66847	-0.08125358
201	0xbc7abb2c	-0.015303414
202	0x3cb93c24	0.022611685
203	0x3d639fb7	0.055572238
204	0x3d64318f	0.055711325
205	0xbd45675a	-0.048194267
206	0xbc2ef1d7	-0.010677776
207	0xbc94042d	-0.018068397
208	0x3cdfe941	0.027332904
209	0x3dd4c7ea	0.10389693
210	0x3cd7bd86	0.026335489
211	0x3d8d9aab	0.06914266
212	0xbd8f7123	-0.07004001
213	0x3d85550e	0.065103635
214	0xbaaeb8ae	-0.0013330185
215	0xbd9fa36c	-0.07794842
216	0x3d0eeb7f	0.034892555
217	0xbd807292	-0.062718526
218	0xbc9918af	-0.018688528
219	0x3cf1867e	0.029483076
220	0x3ca5a589	0.020220535
221	0xbdb0340c	-0.08603677
222	0xbdcbfceb	-0.0996035
223	0x3d7b2e7b	0.061323624
224	0x3d50468a	0.05084852
225	0xbd650278	-0.055910558
226	0x3ae561f1	0.0017500502
227	0x3d59b1d8	0.05314812
228	0xbdf9882e	-0.12184177
229	0x3be765a7	0.0070616785
230	0xbd5c3349	-0.053759847
231	0xbce1210b	-0.027481576
232	0xbdafb45e	-0.08579324
233	0xbc5044aa	-0.012711683
234	0xbd9281f8	-0.07153696
235	0xbde4ca48	-0.111713946
236	0xbc054b1b	-0.008135582
237	0x3d5cf565	0.053944964
238	0x3d3444f4	0.04401107
239	0xbd72851f	-0.059208985
240	0xbd84f1fe	-0.06491469
241	0x3d06c30b	0.03290085
242	0x3d4a7e83	0.049437057
243	0x3d4756b6	0.04866668
244	0xbdc39b0c	-0.09551057
245	0xbcb10b7f	-0.021611927
246	0x3d13b6ba	0.036062934
247	0x3d58703b	0.052841406
248	0x3ba5fb49	0.005065356
249	0x3d923c43	0.071404
250	0x39deb0ee	0.00042474963
251	0xbd70b8c8	-0.05876997
252	0x3c6125e2	0.013741942
253	0xbd3ff532	-0.046864696
254	0x3c1e151c	0.009648588
255	0xbd58375b	-0.052787166

block2.conv.bias f4 [32]
0	0x3daafda3	0.083491586
1	0x3c0dbc0f	0.008650794
2	0x3d11ba7d	0.03557824
3	0x3dccdca1	0.10003019
4	0x3d8d2fac	0.06893858
5	0xbda44eaf	-0.0802282
6	0xbccd3a9c	-0.025052361
7	0x3d95fd0a	0.07323654
8	0x3d944e62	0.07241513
9	0x3d61e9d3	0.055154633
10	0x3cdba0b4	0.026810028
11	0xbdadcc5f	-0.08486246
12	0x3d9a7423	0.075416826
13	0xbdc91bfc	-0.09819791
14	0xbd188829	-0.037239227
15	0xbdae3bab	-0.085074745
16	0xbdb12079	-0.08648772
17	0xbd80a68a	-0.06281765
18	0xbcc23cd2	-0.023710642
19	0xbbe3cac3	-0.0069516613
20	0x3be19e9e	0.0068853637
21	0xbd9700f7	-0.07373231
22	0xbdc72613	-0.09724059
23	0x3db1f308	0.08688933
24	0x3d77edcb	0.06052951
25	0x3c055235	0.008137275
26	0x3dc352d1	0.0953728
27	0xbd259e6f	-0.040434297
28	0xbdc45e43	-0.095882915
29	0x3d9017e9	0.070358105
30	0xbdcf445d	-0.10120461
31	0x3d9a0b56	0.075216934

block2.norm.weight f4 [32]
0	0x3f850b50	1.0394077
1	0x3f889c26	1.0672653
2	0x3f8155dc	1.0104327
3	0x3f832660	1.0246086
4	0x3f85803a	1.0429757
5	0x3f858096	1.0429866
6	0x3f7d8760	0.9903469
7	0x3f896e5b	1.0736803
8	0x3f84c9a8	1.0374041
9	0x3f807af3	1.0037521
10	0x3f853268	1.0406008
11	0x3f879848	1.0593348
12	0x3f7fbfb3	0.99901885
13	0x3f875402	1.0572512
14	0x3f85b0e5	1.0444609
15	0x3f8260a8	1.0185747
16	0x3f89deac	1.0771079
17	0x3f83f3f3	1.0308822
18	0x3f842800	1.0324707
19	0x3f7d54d4	0.9895756
20	0x3f820368	1.015729
21	0x3f8801c5	1.062554
22	0x3f7b0e11	0.9806834
23	0x3f8759ea	1.0574315
24	0x3f8807f5	1.0627428
25	0x3f89e3ab	1.0772604
26	0x3f8072d7	1.0035046
27	0x3f7e2fb6	0.9929155
28	0x3f870e27	1.0551194
29	0x3f80d0b8	1.0063696
30	0x3f80e22b	1.0069021
31	0x3f89859c	1.0743899

block2.norm.bias f4 [32]
0	0x3d07482d	0.033027817
1	0x3d2c52ae	0.042071037
2	0x3c921f85	0.017837295
3	0xbc2bb4e9	-0.010480144
4	0x3caa86eb	0.020816287
5	0x3d283e72	0.041075177
6	0xbcd93b4a	-0.026517529
7	0xbcef11c9	-0.029183285
8	0xbc7bf82a	-0.015378991
9	0xbd0c77a7	-0.034293797
10	0xbcf737d8	-0.030177996
11	0x3d2f0e31	0.042738143
12	0xbd28dba9	-0.04122511
13	0x3c29b0a9	0.0103570605
14	0x3cf2bd35	0.029631237
15	0x3c9c67bd	0.019092435
16	0x3d056a0c	0.032571837
17	0xbb70a97f	-0.0036722121
18	0xba293aaf	-0.0006455583
19	0xbd0867ef	-0.033302244
20	0xbcde3d3d	-0.02712881
21	0x3d4ef341	0.050524954
22	0xbd597276	-0.053087674
23	0x3d0d8d60	0.034558654
24	0x3cedee09	0.029044168
25	0x3d4e1d30	0.050320804
26	0xbce975a8	-0.028498486
27	0x3cc229a0	0.023701489
28	0x3cd8270b	0.026385805
29	0x3c269a1a	0.010168577
30	0xbd106e39	-0.035261367
31	0x3d52ddcd	0.051481057

block2.norm.running_mean f4 [32]
0	0x3e3a7a60	0.18210745
1	0xbe2a6627	-0.1664053
2	0x3e617591	0.22017504
3	0x3e08ad06	0.13347253
4	0xbdc705b5	-0.097178854
5	0xbd5fb627	-0.054617073
6	0x3e70e35c	0.2352423
7	0x3e99fab7	0.30074093
8	0xbe87a4d4	-0.2649294
9	0xbe7f0d42	-0.24907401
10	0x3e982521	0.29715827
11	0x3e896b17	0.26839516
12	0xbb7b4133	-0.0038338422
13	0xbe85c2d3	-0.26125202
14	0xbe2c3453	-0.16816835
15	0x3e95236e	0.29128593
16	0xbf0691a7	-0.52566
17	0xbed8d27d	-0.4234809
18	0xbf095442	-0.5364419
19	0xbe98d0b1	-0.2984672
20	0xbc77abea	-0.015116671
21	0x3eee3fbe	0.46533006
22	0xbdde6de1	-0.108608015
23	0x3d92dc22	0.07170893
24	0x3dccde9e	0.10003398
25	0xbe735b05	-0.2376519
26	0xbed9a25b	-0.4250668
27	0xbbc257e5	-0.005930888
28	0xbe7bb194	-0.2457946
29	0x3eef3100	0.46717072
30	0x3ea4b6fc	0.32170856
31	0x3eadf20b	0.33973727

block2.norm.running_var f4 [32]
0	0x3e1e6730	0.1546905
1	0x3dce3352	0.10068382
2	0x3e26c6f7	0.16286837
3	0x3e1eb854	0.15500003
4	0x3df51d46	0.11968474
5	0x3e0e2b94	0.13883811
6	0x3e3414e9	0.17586102
7	0x3de4b5a9	0.111674614
8	0x3dba8c15	0.0910875
9	0x3e2e58a4	0.17026001
10	0x3e3eeb0d	0.18644352
11	0x3daab2aa	0.08334859
12	0x3de99bc4	0.11406663
13	0x3debaddb	0.1150777
14	0x3debc8f4	0.11512938
15	0x3dd54d39	0.1041512
16	0x3dacc424	0.08435848
17	0x3e0d4431	0.13795544
18	0x3e1cb843	0.15304665
19	0x3e15b93d	0.14621444
20	0x3dfb4d71	0.1227063
21	0x3e0463ab	0.12928645
22	0x3dee1096	0.11624257
23	0x3e070b48	0.13187897
24	0x3e2c76ce	0.16842195
25	0x3e37a51f	0.17934082
26	0x3dbceb29	0.09224541
27	0x3e20325a	0.15644208
28	0x3e0464be	0.12929055
29	0x3e1fb5d0	0.155967
30	0x3dcdf96b	0.10057338
31	0x3dcaa505	0.09894756

block3.conv.weight f4 [32, 32, 3]
0	0x3cb9c39b	0.02267628
1	0x3cc67b33	0.024228668
2	0xbc6998c9	-0.014257618
3	0x3d4f764d	0.05064993
4	0xbb8bfda0	-0.004272178
5	0x3dbc2926	0.09187536
6	0x3d07e479	0.033176873
7	0xbcc7a5ea	-0.024371106
8	0xbce6d533	-0.028177833
9	0x3dc5277b	0.09626671
10	0xbdb822ed	-0.089910366
11	0xbc999cfd	-0.018751616
12	0xbcd91d01	-0.026503088
13	0x3d99dca1	0.07512785
14	0xbd9ace17	-0.0755884
15	0x3d885aca	0.06657942
16	0xbde608bd	-0.112321354
17	0xbda32043	-0.07965138
18	0x3d60bc7a	0.054867245
19	0xbdb0ee5e	-0.08639215
20	0x3d079a65	0.033106226
21	0xbd451fe7	-0.048126128
22	0x3db5ed25	0.08883122
23	0xbd187116	-0.037217222
24	0x3d6e9605	0.05824854
25	0xbd96e057	-0.07367008
26	0xbde23154	-0.11044565
27	0x3c3eefa3	0.0116538135
28	0x3d149496	0.036274515
29	0xbd54c2f3	-0.05194373
30	0x3d338470	0.043827474
31	0x3ca901dd	0.020630771
32	0xbd2f97ea	-0.042869486
33	0x3e01eab0	0.12687182
34	0xbd09da23	-0.033655297
35	0xbda55561	-0.08072925
36	0x3d4e0b71	0.05030388
37	0xbc406b2f	-0.011744305
38	0xbd7770c0	-0.06041026
39	0xbd4ce9b5	-0.050027568
40	0x3cf736e2	0.030177537
41	0xbd4a2379	-0.049350236
42	0xbd910241	-0.07080508
43	0x3bef159d	0.0072962777
44	0xbab6fc15	-0.0013960624
45	0x3d8872ad	0.06662498
46	0x3d16f02f	0.03685015
47	0x3b883655	0.0041568675
48	0xbd822302	-0.063543335
49	0x3d823338	0.063574255
50	0x3cb48587	0.022036327
51	0xbca55f4b	-0.02018704
52	0x3d3f814d	0.04675417
53	0x3d82fbe4	0.063957006
54	0x3d2f081c	0.042732343
55	0x3ce387da	0.02777474
56	0xbcc42ec4	-0.02394808
57	0xbd411ee8	-0.047148615
58	0xbded0197	-0.11572569
59	0x3d6b8035	0.057495315
60	0x3e0372b1	0.1283672
61	0x3dd59185	0.10428146
62	0xbc845344	-0.016152985
63	0x3c5d5149	0.013508149
64	0xbd319e32	-0.043363757
65	0xbd4296f0	-0.047507226
66	0x3daede5f	0.08538508
67	0xbc2a757e	-0.010403989
68	0x3d01667e	0.031591885
69	0xbd8d4f02	-0.06899835
70	0x3c42dae7	0.011893011
71	0xbdb753c0	-0.08951521
72	0x3d148a7f	0.036264893
73	0x3a609c77	0.0008568237
74	0xbd08303f	-0.033249136
75	0x3db2fd0c	0.08739671
76	0x3d8c103e	0.068390355
77	0xbd5a80a3	-0.053345334
78	0x3d6fe652	0.05856926
79	0xbc12fc24	-0.008971248
80	0xbdc9482b	-0.09828218
81	0x3dd47bd9	0.103751846
82	0x3d29392b	0.041314285
83	0xbd13e05c	-0.036102638
84	0x3c2da3b0	0.010598108
85	0xbc95f7c3	-0.018306619
86	0xbd13e1b7	-0.03610393
87	0x3d85b489	0.06528575
88	0xbc8946bf	-0.016757367
89	0xbceb600a	-0.028732318
90	0xbd09740c	-0.033557937
91	0xbd93f3d1	-0.07224239
92	0x3da3a285	0.079899825
93	0x3c73b487	0.014874584
94	0xbced0be1	-0.028936328
95	0x3d0fbe90	0.035093844
96	0x3c9fe48f	0.019518165
97	0xbdb4b796	-0.08824079
98	0xbcc002c5	-0.02343882
99	0xbbbb901e	-0.005723967
100	0x3d4159e8	0.047204882
101	0x3d697ef7	0.05700585
102	0xbc72c1a0	-0.014816672
103	0x3cb3504e	0.021888878
104	0xbd3c9883	-0.046043884
105	0x3e110bfc	0.14164728
106	0x3ce1abc4	0.027547725
107	0xbd9217f9	-0.07133479
108	0xbdc4386f	-0.09581076
109	0xbc46f129	-0.012142458
110	0x3cde76ea	0.027156312
111	0xbcb77349	-0.02239384
112	0x3d8e0b79	0.06935782
113	0x3a7059ef	0.00091686746
114	0x3d83d9eb	0.06438049
115	0xbc30bffa	-0.010787958
116	0xbcb66937	-0.022266967
117	0x3da2bda4	0.07946327
118	0x3d41a8b5	0.047280032
119	0x3db2a69a	0.08723183
120	0x3dd79f24	0.105284005
121	0x3cd35e49	0.025801795
122	0x3d118423	0.035526406
123	0x3cf6688e	0.030079152
124	0xbb4e132f	-0.003144454
125	0xbd45052c	-0.048100635
126	0xbd9cb83f	-0.0765233
127	0xbd87b18e	-0.06625663
128	0xbd956c56	-0.07296054
129	0x3d654c57	0.055981006
130	0x3da507fc	0.080581635
131	0xbcceb540	-0.025232911
132	0x3d6f2fbd	0.058395136
133	0x3c7134dd	0.014722076
134	0x3c8a8970	0.016911238
135	0x3ba2dd8d	0.0049702586
136	0x3da52cfb	0.0806522
137	0xbd3fc094	-0.046814516
138	0xbdb7a875	-0.089676775
139	0x3ce9ed64	0.02855558
140	0x3c6b1355	0.014347871
141	0xbdbec0f7	-0.09314149
142	0x3db0cfa6	0.08633356
143	0x3d370783	0.044684898
144	0x3c26f554	0.010190327
145	0x38e17c5e	0.00010752001
146	0x3d38268e	0.044958644
147	0xbcb00a84	-0.02148939
148	0x3d372df7	0.04472157
149	0x3d00f589	0.03148416
150	0xbde7d393	-0.113196515
151	0x3d67990c	0.05654244
152	0x3daf6702	0.08564569
153	0x3d47571e	0.048667066
154	0x3d14f460	0.036365867
155	0x3d14a65f	0.036291476
156	0xbced38c4	-0.028957732
157	0xbd8dda80	-0.06926441
158	0x3b91451b	0.004433287
159	0x3d052244	0.03250338
160	0x3d627bab	0.05529372
161	0x3cb01845	0.021495948
162	0x3caa56e3	0.020793384
163	0xbd3a56c6	-0.04549291
164	0xbd885ab5	-0.06657926
165	0x3dd6ea1d	0.10493872
166	0xbd2fdd45	-0.04293563
167	0x3de5574e	0.11198293
168	0x3d4e47cb	0.050361436
169	0x3d6080ee	0.054810457
170	0x3c3743e8	0.011185624
171	0xbd06cd87	-0.03291085
172	0x3cbcf03f	0.023063777
173	0xbaccd27e	-0.0015626696
174	0x3cb6d3af	0.022317735
175	0xbd7e0d91	-0.062024657
176	0xbde3d26f	-0.111241214
177	0x3d6ee61a	0.05832491
178	0xbd8fae54	-0.07015672
179	0xbcd78902	-0.026310448
180	0x3dcc4bee	0.0997542
181	0x3d97acce	0.07406007
182	0x3d506086	0.050873302
183	0xbd1770f5	-0.03697296
184	0xbbfd7b71	-0.0077356626
185	0xbdc75de4	-0.09734705
186	0xbd8910b3	-0.06692638
187	0xbd035686	-0.032064937
188	0x3d2ef064	0.042709723
189	0xbd187476	-0.03722044
190	0x3cfc0334	0.030763246
191	0xbd054be0	-0.032543063
192	0xbc55d5e2	-0.013051482
193	0xbce4515d	-0.027870828
194	0xbd72343f	-0.059131857
195	0x3dacd17d	0.08438394
196	0x3d5cd11b	0.053910356
197	0xbda9dbbe	-0.082938656
198	0x3c2cdacb	0.010550211
199	0xbd9b185c	-0.075730056
200	0xbc0b86cd	-0.008516026
201	0x3ccf4f23	0.02530629
202	0x3de811ab	0.11331495
203	0xbd465884	-0.04842426
204	0xbd537e93	-0.051634382
205	0x3dc1fd74	0.094721705
206	0x3ca42fb3	0.020042276
207	0x3d63364f	0.055471715
208	0x3d840b46	0.06447463
209	0x3d070e3f	0.03297257
210	0xbcbe6c6f	-0.023245065
211	0xbce097b2	-0.027416084
212	0xbcb77c18	-0.02239804
213	0x3caaeb4d	0.020864153
214	0x3d7d9348	0.061908036
215	0xbd18882b	-0.037239235
216	0xbd1d75cb	-0.038442414
217	0x3da3d4fd	0.07999609
218	0x3de513e9	0.11185438
219	0x3dabc24c	0.083866686
220	0xbe10aa7a	-0.14127532
221	0x3d765252	0.0601371
222	0xbb9127ab	-0.0044297776
223	0x3d4db05e	0.050217025
224	0x3cbc7167	0.023003293
225	0xbd75810e	-0.05993753
226	0xbdd5c007	-0.10437017
227	0x3c68afd3	0.014202076
228	0x3d3cf7f1	0.046134893
229	0x3cb3bb44	0.021939881
230	0xbda9a392	-0.08283152
231	0x3d39e6b6	0.04538604
232	0x3d364da4	0.044507638
233	0xbcc6eeec	-0.024283849
234	0x3c9d3989	0.019192474
235	0xbd2ccd36	-0.042187892
236	0x3bb7356c	0.005591085
237	0xbd05fbb5	-0.03271075
238	0xbce9e764	-0.028552718
239	0xbdc11a3d	-0.09428833
240	0xbdde7e0e	-0.10863887
241	0x3da8be79	0.08239455
242	0x3c312be3	0.010813686
243	0xbd547bc0	-0.05187583
244	0x3d50e5a5	0.051000256
245	0x3d6c6f46	0.057723306
246	0x3dbd49b7	0.092425756
247	0xbd0052cd	-0.031328965
248	0x3dd7fd1c	0.10546324
249	0x3cd705f2	0.026247952
250	0x3cda917f	0.026680706
251	0x3df1a7c9	0.117995806
252	0x3d9f8081	0.07788182
253	0x3d6c1c1b	0.05764399
254	0x3c602ff0	0.013683304
255	0x3db59501	0.08866311

block3.conv.bias f4 [32]
0	0x3c9f8a2e	0.019475069
1	0x3da50299	0.08057136
2	0xbc32f5f5	-0.010922899
3	0x3c07a3c9	0.0082787955
4	0xbc11c210	-0.008896366
5	0xbd4a88e6	-0.049446963
6	0x3d7fc0a1	0.062439565
7	0xbd36ed5e	-0.044659965
8	0x3d4a41ae	0.049379043
9	0x3d5c1b60	0.053737044
10	0x3d5410d3	0.051773857
11	0xbd7080c5	-0.058716554
12	0xbb0ec7b3	-0.002178651
13	0x3db30882	0.08741857
14	0x3dac3522	0.08408572
15	0xbd352a2f	-0.044229683
16	0x3d5142f1	0.05108923
17	0xbd902177	-0.07037633
18	0x3dce6243	0.10077336
19	0xbd905c79	-0.07048888
20	0xbd7aa178	-0.061189145
21	0x3ca32472	0.01991484
22	0xbd15e4f0	-0.036595285
23	0xbd5d09f4	-0.05396457
24	0xbd9818a5	-0.074265756
25	0xbd756a33	-0.059915733
26	0xbcb51ecc	-0.022109412
27	0x3d2a8f73	0.04164071
28	0x3d65abd0	0.056072056
29	0xbc921ddc	-0.017836504
30	0xbd42cdff	-0.047559734
31	0xbd9a245d	-0.07526467

block3.norm.weight f4 [32]
0	0x3f89cf85	1.0766455
1	0x3f8cba9d	1.099445
2	0x3f86fe35	1.0546328
3	0x3f8302e3	1.0235256
4	0x3f805fba	1.0029213
5	0x3f8e5eea	1.1122715
6	0x3f8811c4	1.0630422
7	0x3f8a4cad	1.080465
8	0x3f859cf4	1.0438523
9	0x3f845791	1.0339223
10	0x3f86253f	1.0480117
11	0x3f92f634	1.1481385
12	0x3f84cf00	1.0375671
13	0x3f8b3048	1.0874109
14	0x3f8ac14b	1.0840238
15	0x3f892e2a	1.0717213
16	0x3f8daabe	1.1067731
17	0x3f8a886f	1.0822886
18	0x3f8aa8cb	1.0832762
19	0x3f84e6bd	1.0382916
20	0x3f812cc4	1.0091786
21	0x3f888730	1.0666256
22	0x3f8249c0	1.0178757
23	0x3f8e5a5d	1.1121327
24	0x3f88fe5e	1.0702627
25	0x3f8b04a0	1.0860786
26	0x3f7e4cc7	0.993359
27	0x3f8a714f	1.0815829
28	0x3f89b00b	1.0756849
29	0x3f86d5d1	1.0534002
30	0x3f8039f7	1.001769
31	0x3f8e46ae	1.111532

block3.norm.bias f4 [32]
0	0x3d7fa29b	0.062410932
1	0x3d89c375	0.067267336
2	0x3d478384	0.048709407
3	0xbc9407de	-0.018070158
4	0x3c65eb06	0.014033085
5	0x3d85dabb	0.0653586
6	0x3d04bd7b	0.032407265
7	0x3d07a3c7	0.033115175
8	0xbc1d75c8	-0.009610601
9	0x3c16f211	0.009212987
10	0x3be8e0b1	0.0071068634
11	0x3d8228e8	0.063554585
12	0xbc82d1b8	-0.015969142
13	0x3c4a7862	0.012357803
14	0x3cb31d8c	0.021864675
15	0x3d24a31f	0.040194627
16	0x3d9dbdbe	0.07702206
17	0x3d6878d0	0.05675584
18	0x3cc22ef1	0.023704024
19	0xbc1a3a78	-0.009413354
20	0xbc9734b9	-0.018457757
21	0x3d0b3467	0.03398552
22	0xbb62f2c2	-0.0034629558
23	0x3d9603be	0.073249325
24	0x3d188a2a	0.03724114
25	0x3d63e220	0.05563557
26	0xbd05bba4	-0.03264965
27	0x3d38a573	0.04507966
28	0x3d2023b6	0.039096557
29	0xbb744f47	-0.0037278698
30	0xbc5f279f	-0.013620286
31	0x3dab4f86	0.08364777

block3.norm.running_mean f4 [32]
0	0xbbfcc712	-0.0077141607
1	0x3ee5e465	0.44900814
2	0x3e830d79	0.25596216
3	0x3d777f54	0.060424164
4	0x3f3d8222	0.7402669
5	0xbe577983	-0.21042447
6	0x3d16c507	0.036808994
7	0x3cb72f2c	0.02236136
8	0x3f4e62d1	0.8061953
9	0xbc50b2f0	-0.0127379745
10	0x3f79ea31	0.9762297
11	0x3e948ea8	0.29015088
12	0x3e60fe06	0.21971902
13	0x3e9c3b72	0.30514103
14	0x3cec7e24	0.028868742
15	0x3d8b0014	0.06787124
16	0x3efee0d6	0.4978091
17	0xbe96012d	-0.29297772
18	0x3e27c8e7	0.16385232
19	0x3e9bf719	0.30461958
20	0xbdf043cf	-0.117316835
21	0x3e747c8f	0.2387564
22	0xbdaaef5f	-0.08346438
23	0xbe82d47e	-0.25552744
24	0xbcd5d9f2	-0.026104901
25	0x3ee4190b	0.44550356
26	0xbecf789b	-0.40521702
27	0xbf31d738	-0.6946902
28	0x3eae1408	0.33999658
29	0xbebf48f1	-0.37360337
30	0x3f401502	0.75032055
31	0x3dba814e	0.09106694

block3.norm.running_var f4 [32]
0	0x3e75355f	0.2394614
1	0x3e1b9f2f	0.15197442
2	0x3e42f11b	0.19037287
3	0x3e70c1bb	0.23511402
4	0x3ea4f598	0.32218623
5	0x3e4405f3	0.19142894
6	0x3e5b8791	0.21438433
7	0x3e516a6f	0.20450757
8	0x3e885cac	0.26633203
9	0x3e15b8ec	0.14621323
10	0x3e73e626	0.23818263
11	0x3e120796	0.14260706
12	0x3e45686b	0.19278114
13	0x3e54980b	0.20761125
14	0x3e3ece02	0.18633273
15	0x3e107765	0.14108045
16	0x3e65a7ee	0.22427341
17	0x3e238f79	0.15972699
18	0x3e5907a2	0.21194318
19	0x3e4a1973	0.1973627
20	0x3e7ba7b2	0.2457569
21	0x3e6605c8	0.22463143
22	0x3e8686da	0.2627476
23	0x3e5cf945	0.21579464
24	0x3e245f11	0.1605189
25	0x3e96c926	0.2945034
26	0x3e63560d	0.22200795
27	0x3e5abe5f	0.21361683
28	0x3e3e9eeb	0.1861531
29	0x3e60c488	0.2194997
30	0x3e822ecf	0.25426337
31	0x3e169847	0.14706527

fc.weight f4 [6, 32]
0	0x3e24dfdd	0.16101022
1	0x3e6b857f	0.23000143
2	0x3dc79cdb	0.09746715
3	0xbc316eff	-0.010829686
4	0xbce07d4a	-0.027403492
5	0x3e0d2b68	0.1378609
6	0x3d2e1ba4	0.04250683
7	0x3c57b1e0	0.013164967
8	0xbdbff41b	-0.09372731
9	0xbddd1c15	-0.10796372
10	0xbe1553f0	-0.14582801
11	0x3da73956	0.08165233
12	0xbdf7da18	-0.12102145
13	0x3d1b2112	0.037873335
14	0x3d356768	0.04428807
15	0xbdf36c85	-0.11885933
16	0x3e4a3b95	0.19749291
17	0x3d24a6d8	0.040198177
18	0xbd3059e6	-0.043054484
19	0xbdd9f691	-0.10642732
20	0xbe236f25	-0.15960367
21	0x3de0b2e3	0.1097162
22	0xbe22d148	-0.15900147
23	0x3dd0b44f	0.10190641
24	0x3e32235d	0.17396303
25	0x3dbcfc21	0.09227777
26	0xbe162a71	-0.14664628
27	0x3d91d488	0.07120615
28	0x3db451a9	0.08804638
29	0xbe0c8ecd	-0.13726349
30	0xbda7944f	-0.081825845
31	0x3e3e143d	0.18562408
32	0xbe76894e	-0.24075815
33	0xbda94769	-0.082655735
34	0xbd946a91	-0.072468884
35	0xbdef5408	-0.116859496
36	0x3d722cae	0.05912464
37	0xbe531b84	-0.20615965
38	0xbe02ef5a	-0.12786618
39	0xbddf81f9	-0.10913462
40	0x3e15bfd2	0.14623955
41	0x3e40cf20	0.18829012
42	0xbe61ee36	-0.22063527
43	0x3d145f78	0.03622386
44	0x3d76238d	0.060092498
45	0x3de2a14f	0.110659234
46	0x3cdbec63	0.026846116
47	0xbe260c9e	-0.1621575
48	0xbe7844a0	-0.24244928
49	0xbdf8df0b	-0.12151917
50	0xbd796650	-0.06088859
51	0x3d86dde6	0.065852925
52	0x3dd92439	0.10602612
53	0xbe47339c	-0.19453281
54	0x3e0ad923	0.13559394
55	0xbe3871d8	-0.18012178
56	0xbd7c116b	-0.06154005
57	0x3db59648	0.088665545
58	0x3e045138	0.12921607
59	0xbcecb786	-0.028896105
60	0x3d78e85e	0.060768478
61	0xbe2f8632	-0.17141035
62	0xbde78d24	-0.11306217
63	0xbd237b91	-0.039912764
64	0xbdc871a2	-0.09787299
65	0x3e1cc647	0.15310012
66	0x3de03469	0.109474964
67	0xbe1cd1d6	-0.15314421
68	0xbe1385ff	-0.14406584
69	0xbe3310a9	-0.17486824
70	0xbd18bda8	-0.037290245
71	0x3e2baef2	0.16765955
72	0x3cb44579	0.022005783
73	0xbe7a4453	-0.24440126
74	0xbc990903	-0.018681055
75	0x3e62e43c	0.22157377
76	0xbc856572	-0.016283724
77	0xbe2c7088	-0.16839802
78	0x3e0f1e93	0.13976507
79	0x3dc4dfe3	0.096130155
80	0x3e41ba41	0.18918706
81	0xbe52981d	-0.20565839
82	0x3e458a4a	0.19291034
83	0x3d7bd65d	0.06148373
84	0x3e30fa19	0.17282905
85	0xbe1a0a52	-0.15043
86	0x3dbe301d	0.09286521
87	0x3dfedefb	0.12444874
88	0x3d3d65a9	0.04623953
89	0xbd182e35	-0.03715344
90	0xbdd720b2	-0.10504283
91	0xbd35c1bb	-0.04437421
92	0xbe160c3b	-0.14653103
93	0xbd825188	-0.06363207
94	0xbd973072	-0.07382287
95	0x3e04df9c	0.12975925
96	0xbe71376a	-0.23556295
97	0x3cd1a415	0.025590936
98	0xbdcdff9d	-0.1005852
99	0xbbc12c98	-0.0058952086
100	0xbdf74c28	-0.120750725
101	0xbe748cb1	-0.23881795
102	0xbd1b4681	-0.037909035
103	0xbcbe1af2	-0.023206208
104	0x3d420a5d	0.047373164
105	0xbdf21667	-0.11820679
106	0xbe580e82	-0.21099284
107	0xbe1a9b2e	-0.15098259
108	0xbd98b072	-0.07455529
109	0x3e4fca6a	0.20292059
110	0xbe162811	-0.14663722
111	0xbddca658	-0.10773915
112	0x3c336239	0.010948711
113	0xbdf78df7	-0.120876245
114	0xbe1ce905	-0.15323265
115	0x3e12319b	0.14276735
116	0x3c8ee183	0.017441517
117	0x3e09d604	0.13460547
118	0xbdab2154	-0.08355966
119	0xbe354b51	-0.17704512
120	0x3bc7ec89	0.0061011952
121	0xbe08f7f2	-0.13375834
122	0x3df7eab3	0.12105312
123	0xbe0436ff	-0.12911604
124	0xbcce34e8	-0.025171712
125	0xbe2f0430	-0.17091441
126	0x3dee7399	0.11643142
127	0x3e00f139	0.12592019
128	0x3c3c52e8	0.011494376
129	0xbe12ae12	-0.14324215
130	0xbe418f53	-0.1890233
131	0xbd8877d5	-0.06663481
132	0xbdc7ece1	-0.09761978
133	0x3e322d1a	0.17400017
134	0x3e150d64	0.1455589
135	0xbdc0831e	-0.094000086
136	0xbe1d3c55	-0.15355046
137	0x3e30a8af	0.17251848
138	0x3e59f26e	0.21283886
139	0xbe52e993	-0.20596914
140	0x3d652ecf	0.055952843
141	0x3c152559	0.009103143
142	0x3e190d10	0.14946389
143	0xbdc316d6	-0.0952584
144	0x3d971bbf	0.07378339
145	0x3e04d0a4	0.12970215
146	0xbe52c16d	-0.20581599
147	0x3e211e00	0.157341
148	0x3d042e14	0.032270506
149	0xbd00e969	-0.031472597
150	0x3e1a8e6b	0.1509339
151	0x3d8f2145	0.069887675
152	0x3d91507c	0.07095429
153	0xbe1ca926	-0.152989
154	0x3b0170d4	0.0019751089
155	0x3e16111f	0.14654969
156	0xbe0e44d2	-0.1389344
157	0xbe215de0	-0.15758467
158	0x3e1de777	0.15420328
159	0xbdbda029	-0.09259064
160	0x3c283487	0.01026643
161	0x3d6a0854	0.05713685
162	0x3e2e7767	0.17037736
163	0x3b2326d5	0.0024894972
164	0x3dc04738	0.09388584
165	0xbd8076a6	-0.062726304
166	0xbda019e0	-0.07817435
167	0xbe2a62cc	-0.1663925
168	0xbda82123	-0.08209445
169	0xbdfddfcb	-0.12396201
170	0x3d4b11c7	0.0495775
171	0x3d22d247	0.039751317
172	0x3dca1094	0.09866443
173	0xbdefda37	-0.11711543
174	0x3e49d96c	0.19711846
175	0x3e3df522	0.18550542
176	0x3c5c7d73	0.013457644
177	0x3da4ef0b	0.08053406
178	0xbc4930f8	-0.0122797415
179	0xbe04e928	-0.12979567
180	0x3d4f0282	0.0505395
181	0xbe025808	-0.12728894
182	0x3dbffb01	0.09374047
183	0x3e5b46e1	0.21413757
184	0xbe26698b	-0.16251199
185	0x3e07d038	0.13263023
186	0x3e12837e	0.14307973
187	0x3d82b0bb	0.06381365
188	0xbe13d08a	-0.1443502
189	0x3e4ec289	0.20191397
190	0x3d8f9fea	0.07012923
191	0xbcb6615b	-0.02226322

fc.bias f4 [6]
0	0xbdb5590d	-0.08854876
1	0xbc8a261e	-0.016863879
2	0xbde5fbee	-0.112296924
3	0x3db91142	0.09036495
4	0x3c0fa71d	0.00876787
5	0xbd92dccd	-0.07171021
