outputs/models/tcn_model.pt (torch, 38998 bytes, 22 tensors)

block1.conv.weight f4 [32, 6, 3]
-0.17490219 0.0035479285 -0.14596048 0.16173893 0.18994547 -0.14608474 -0.24356003 0.14934734
0.15172696 0.20524517 -0.12011385 -0.09071236 -0.117444776 -0.068997234 0.022772398 -0.21467458
0.21801475 -0.18895748 -0.02562602 -0.1763245 -0.11865211 -0.17067002 0.1810885 0.062617496
-0.011290298 0.13007623 0.011755168 0.017611815 -0.10179412 -0.07501784 0.009505066 0.22554003
0.062172253 0.01893211 0.09472861 0.22130696 0.0204543 -0.27147025 0.044102903 -0.26964328
-0.04901515 -0.09133927 -0.04829091 -0.14148037 -0.22205377 -0.2319722 0.1292181 0.015248253
0.20321774 -0.013725268 0.025158457 -0.17721575 0.20107195 -0.10267279 -0.14976133 0.040654484
0.16298719 -0.057714336 0.054244887 -0.019739794 -0.11679625 0.2879384 0.17648159 -0.0043813637
-0.011759244 0.12876996 -0.11080576 0.076276764 -0.12213661 -0.2049932 -0.20476356 -0.17216815
0.26484892 -0.08587851 -0.0014198523 -0.06003166 0.14989246 0.17467834 0.05307721 0.124765486
-0.1264193 -0.17341135 -0.23856446 -0.25192586 -0.2126989 0.07809019 0.19515483 -0.14009152
-0.11704147 0.1565593 -0.21375313 -0.15046808 0.13532674 0.06357155 0.0143946465 -0.18809049
0.0020051003 0.06964762 -0.07166236 -0.14454171 0.08440988 -0.26033118 -0.12722944 0.019861208
-0.19658932 -0.12382096 0.056092452 0.17477532 0.019639328 0.05917105 0.069332875 -0.0616383
0.0033550973 -0.16188955 0.17623904 0.20392153 -0.097930565 -0.25179374 -0.15476136 0.13141327
0.0951591 -0.02705099 0.050019193 0.08411032 0.029617922 0.059234068 -0.0013272575 -0.03643781
0.06055681 0.16498758 -0.06165233 0.16134174 0.015914086 -0.12855428 0.12266916 -0.12366939
0.13891387 0.21832016 0.046883006 -0.13896008 -0.15518583 -0.12009325 0.056970358 0.110049985
0.10271926 0.10467808 -0.12288453 0.07105197 -0.11100786 -0.13815725 0.10822998 -0.11669559
0.10718105 0.07144475 0.1895281 0.2254094 0.093964376 0.026243715 -0.016630344 0.023147516
0.061820667 -0.051150028 -0.06560194 -0.022446979 -0.22797963 0.029747631 -0.18142873 -0.09152976
0.11317744 -0.13303466 -0.002477755 0.080506966 -0.1542892 -0.08494707 -0.052808743 0.072541066
-0.049132593 0.037675317 -0.0036806487 0.16944224 0.056280587 -0.14210078 -0.15814075 0.10538181
0.07589656 0.035642017 0.025179414 0.17875732 -0.008637545 -0.03971224 -0.17348634 0.024939662
-0.14387241 -0.07386672 0.0537796 0.2056559 -0.16291478 -0.15136106 0.15080155 -0.083378494
0.11003414 -0.16838758 0.029653607 0.037443254 -0.10716298 -0.057083204 -0.13900141 0.0023177185
-0.0418606 -0.2631494 -0.20432667 -0.17517003 -0.06972201 0.23555164 0.21774939 -0.15828848
0.16796964 -0.096399195 -0.007540251 0.15386711 -0.13302623 0.006739042 0.08550799 0.06932911
0.008444224 0.14654732 0.16675653 -0.10488878 -0.15234998 -0.094657764 -0.21054353 -0.24896108
-0.15551262 0.00167153 0.04726081 -0.15623651 -0.012814056 -0.16087215 -0.16911715 0.21476664
-0.109057635 -0.17072538 -0.017136075 0.03398603 0.19266826 -0.049494244 0.08472189 -0.075691976
-0.08833845 -0.065527804 -0.04564903 0.19009943 0.09801716 -0.10209811 0.06435303 0.093663126
00000000: 8f19 33be 5d84 683b aa76 15be e49e 253e
00000010: 1181 423e 3d97 15be cd67 79be 82ee 183e
00000020: 505e 1b3e ca2b 523e 40fe f5bd 67c7 b9bd
00000030: e386 f0bd 6c4e 8dbd 2e8d ba3c a7d3 5bbe
00000040: 423f 5f3e 127e 41be a9ed d1bc 698e 34be
00000050: e1ff f2bd 1fc4 2ebe 446f 393e 9a3d 803d
00000060: f1fa 38bc b432 053e c098 403c a746 903c
00000070: 7079 d0bd f4a2 99bd 23bb 1b3c f7f3 663e
00000080: 55a8 7e3d 8317 9b3c 1301 c23d 4b9e 623e
00000090: c78f a73c 26fe 8abe 3fa5 343d af0e 8abe
000000a0: 1cc4 48bd 1510 bbbd b0cc 45bd 3be0 10be
000000b0: 1062 63be 1f8a 6dbe c051 043e cfd3 793c
000000c0: 5018 503e f2df 60bc 1c19 ce3c 0c78 35be
000000d0: cee5 4d3e 1d46 d2bd 095b 19be 5185 263d
000000e0: 1de6 263e de65 6cbd e32f 5e3d 59b5 a1bc
000000f0: df32 efbd a96c 933e 97b7 343e 8b91 8fbb
00000100: d8a9 40bc 46dc 033e 21ee e2bd fe36 9c3d
00000110: c222 fabd bde9 51be 8aad 51be d94c 30be
00000120: 479a 873e 12e1 afbd 561a baba c2e3 75bd
00000130: 697d 193e e1de 323e 7d67 593d 0c85 ff3d
00000140: 1074 01be bf92 31be 3e4a 74be 6dfc 80be
00000150: becd 59be c0ed 9f3d abd6 473e 2774 0fbe
00000160: 70b3 efbd 1551 203e 1ae2 5abe 4e14 1abe
00000170: 1893 0a3e cd31 823d 86d7 6b3c cb9a 40be
00000180: 0068 033b 69a3 8e3d b7c3 92bd be02 14be
00000190: 16df ac3d 214a 85be 6f48 02be f9b3 a23c
000001a0: b64e 49be d895 fdbd 33c1 653d 4df8 323e
000001b0: a8e2 a03c 585d 723d 65fe 8d3d 7178 7cbd
000001c0: 31e1 5b3b 60c6 25be 0278 343e ced0 503e
000001d0: d28f c8bd 1ceb 80be c379 1ebe 3391 063e
000001e0: c6e2 c23d 0a9a ddbc ede0 4c3d 0842 ac3d
000001f0: 49a1 f23c 6c9f 723d 5ff7 adba d03f 15bd
00000200: 6b0a 783d 81f2 283e 2787 7cbd c536 253e
00000210: 425e 823c bca3 03be f839 fb3d 6146 fdbd
00000220: 703f 0e3e 528f 5f3e 6508 403d 8d4b 0ebe
00000230: 09e9 1ebe 73f3 f5bd c059 693d e361 e13d
00000240: 7a5e d23d 7661 d63d e2aa fbbd b283 913d
00000250: 1758 e3bd 1879 0dbe aea7 dd3d 19fe eebd
00000260: bd81 db3d a051 923d a713 423e b9d1 663e
00000270: 6570 c03d 0ffd d63c 5c3c 88bc dc9f bd3c
00000280: ab37 7d3d b182 51bd 4f5a 86bd bae2 b7bc
00000290: 7e73 69be 4eb1 f33c 74c8 39be f473 bbbd
000002a0: 93c9 e73d 3d3a 08be d561 22bb d6e0 a43d
000002b0: fdfd 1dbe bbf8 adbd fb4d 58bd 6990 943d
000002c0: 423f 49bd 6f51 1a3d 0a37 71bb 4482 2d3e
000002d0: 7986 663d de82 11be a6ef 21be 6bd2 d73d
000002e0: a86f 9b3d 5dfd 113d 0f45 ce3c 290c 373e
000002f0: 7d84 0dbc 4da9 22bd 67a6 31be 434e cc3c
00000300: 4a53 13be 6f47 97bd ff47 5c3d 7697 523e
00000310: 22d3 26be 65fe 1abe b96b 1a3e 58c2 aabd
00000320: 9459 e13d cb6d 2cbe 1fec f23c 195e 193d
00000330: 4478 dbbd 14d0 69bd 6356 0ebe dde4 173b
00000340: 0576 2bbd 85bb 86be 033b 51be c65f 33be
00000350: 6aca 8ebd 7334 713e b2f9 5e3e 6016 22be
00000360: 3c00 2c3e f16c c5bd 3614 f7bb 578f 1d3e
00000370: 0738 08be 2ed3 dc3b d01e af3d 6cfc 8d3d
00000380: a459 0a3c 8010 163e 39c2 2a3e eecf d6bd
00000390: a201 1cbe eedb c1bd b998 57be a7ef 7ebe
000003a0: b33e 1fbe 3d17 db3a 8d94 413d 77fc 1fbe
000003b0: 0cf2 51bc abbb 24be 0c2d 2dbe c9eb 5b3e
000003c0: 9c59 dfbd a2d2 2ebe f460 8cbc ef34 0b3d
000003d0: d44a 453e 7aba 4abd ac82 ad3d 6504 9bbd
000003e0: caea b4bd 7133 86bd 7afa 3abd 6da9 423e
000003f0: 39bd c83d d018 d1bd 85cb 833d 74d2 bf3d

block1.conv.bias f4 [32]
0.20223615 -0.12730668 0.1750922 0.0074376957 0.02354871 -0.07374616 -0.09938249 0.08032525
-0.010703149 0.08556547 0.08374382 0.10382088 0.0802795 0.05465518 -0.20898953 -0.19729401
0.014230671 -0.15903777 0.16315365 0.059264977 0.1041206 0.1030973 0.22436933 -0.127122
0.022920378 0.11628592 -0.16859226 -0.069878176 -0.19160508 -0.1892093 0.080852225 -0.1785396
00000000: fe16 4f3e af5c 02be 5f4b 333e eab7 f33b
00000010: 39e9 c03c 3a08 97bd 0c89 cbbd 9181 a43d
00000020: 435c 2fbc f33c af3d e181 ab3d 0ba0 d43d
00000030: 9469 a43d 1cde 5f3d 5a01 56be 7107 4abe
00000040: c327 693c ccda 22be c011 273e d5bf 723d
00000050: 2e3d d53d ad24 d33d 13c1 653e 452c 02be
00000060: 84c3 bb3c 5027 ee3d 73a3 2cbe 4a1c 8fbd
00000070: 1f34 44be 15c0 41be da95 a53d 16d3 36be

block1.norm.weight f4 [32]
0.96135366 1.0629461 1.0290809 1.0043459 1.0251697 0.9885899 0.99691105 1.0274761
0.99568564 0.9847732 0.9839589 0.9887564 0.9706455 0.9474943 1.0282184 1.0160793
0.9450008 0.9694818 0.97958314 0.9722433 1.0182843 0.9541771 1.0581762 0.9723484
1.0618837 0.9661761 0.9882417 0.9425507 1.0104367 1.0231258 0.97215 0.987354
00000000: 461b 763f 9e0e 883f ecb8 833f 688e 803f
00000010: c338 833f 3a14 7d3f 9035 7f3f 5684 833f
00000020: 41e5 7e3f 191a 7c3f bbe4 7b3f 241f 7d3f
00000030: 397c 783f fd8e 723f a99c 833f e30e 823f
00000040: 93eb 713f f62f 783f f6c5 7a3f f0e4 783f
00000050: 2457 823f f344 743f 5172 873f d3eb 783f
00000060: ceeb 873f 5157 773f 68fd 7c3f 014b 713f
00000070: fd55 813f c9f5 823f d3de 783f 3bc3 7c3f

block1.norm.bias f4 [32]
-0.038885076 0.048575614 -0.009145689 0.014937721 0.033493146 0.03683211 -0.01713884 0.03112827
-0.013064877 -0.072299995 -0.017044771 -0.03393271 -0.006236175 -0.0353786 0.0124978535 0.028458577
0.011804632 -0.02719588 -0.05137173 -0.011673539 0.047741566 -0.027768023 0.067668036 -0.021097757
0.05745919 -0.05103282 -0.041336387 -0.05235593 -0.019095588 0.039430335 -0.038270496 -0.012351358
00000000: f545 1fbd 39f7 463d cdd7 15bc 58bd 743c
00000010: 1c30 093d 44dd 163d c166 8cbc b700 ff3c
00000020: 110e 56bc 0512 94bd 7aa1 8bbc 06fd 0abd
00000030: d458 ccbb 27e9 10bd ccc3 4c3c f621 e93c
00000040: 3768 413c e5c9 debc 2a6b 52bd 5f42 3fbc
00000050: a98c 433d c479 e3bc 8a95 8a3d 34d5 acbc
00000060: 545a 6b3d ca07 51bd 5850 29bd 2c73 56bd
00000070: 5a6e 9cbc b481 213d 86c1 1cbd 5a5d 4abc

block1.norm.running_mean f4 [32]
-0.5454244 0.272921 -0.46719897 -0.5014252 0.1784468 -0.5397709 0.63523424 0.0424649
0.3613944 -0.17226954 -0.40352547 0.0027688674 -0.618812 -0.3243256 -0.17609891 -0.0076708514
0.34131625 0.45229447 -0.014395229 -0.43872708 -0.14137523 0.10169499 0.59911287 -0.47783256
0.59903294 -0.2601538 -0.6199673 0.35686725 0.030954642 0.40276277 -0.23225214 -0.15304813
00000000: efa0 0bbf 4dbc 8b3e b434 efbe 675d 00bf
00000010: c2ba 363e 6d2e 0abf b69e 223f adef 2d3d
00000020: b008 b93e 6d67 30be e49a cebe e375 353b
00000030: 776a 1ebf 010e a6be 4653 34be c45b fbbb
00000040: 01c1 ae3e 2493 e73e f7d9 6bbc d6a0 e0be
00000050: abc4 10be 7745 d03d 765f 193f 78a6 f4be
00000060: 395a 193f e132 85be 2db6 1ebf 4eb7 b63e
00000070: 9794 fd3c ec36 ce3e 81d3 6dbe a6b8 1cbe

block1.norm.running_var f4 [32]
0.24223608 0.1646505 0.26564646 0.26483998 0.23681673 0.17193832 0.13394539 0.102939196
0.08750953 0.13259058 0.13223957 0.1910131 0.23126978 0.110598475 0.1082666 0.19749887
0.21341817 0.24892145 0.14091322 0.30027163 0.21322179 0.15249786 0.21115802 0.10664575
0.20283875 0.18314108 0.16358836 0.3543666 0.18188432 0.12677091 0.17009036 0.20448072
00000000: bc0c 783e 249a 283e d002 883e 1b99 873e
00000010: 1680 723e 9910 303e fb28 093e c9d1 d23d
00000020: 3238 b33d d3c5 073e cf69 073e f098 433e
00000030: fcd1 6c3e 7481 e23d e1ba dd3d 253d 4a3e
00000040: 4b8a 5a3e 44e5 7e3e 8e4b 103e 34bd 993e
00000050: d056 5a3e 6628 1c3e cf39 583e 1669 da3d
00000060: f6b4 4f3e 5689 3b3e b583 273e 8a6f b53e
00000070: e23f 3a3e 3cd0 013e 2b2c 2e3e 6563 513e

block1.downsample.weight f4 [32, 6, 1]
0.24522425 0.16080514 -0.0615807 -0.3959132 -0.28760952 0.33912078 0.0912602 0.4255694
0.39996842 -0.29808414 0.069255866 -0.09803086 -0.28707626 -0.2166249 0.06567182 0.3058065
0.059330363 -0.40208918 0.37229332 -0.18351847 0.06788623 -0.2516938 0.4218492 -0.10990117
0.20253791 0.40065086 0.42237327 0.41810128 0.13519427 0.08002353 -0.26611993 -0.31289065
-0.16175878 -0.050790876 -0.09642981 -0.10001245 0.094189785 -0.3528258 0.19251634 -0.44672263
0.26648983 0.09658582 0.15882991 -0.0059612757 0.30076447 -0.07220634 -0.05872689 0.08582841
0.12331424 -0.08848742 0.16862015 0.26996085 -0.14844055 0.28564477 -0.07494188 0.2849488
0.019475136 0.29176822 -0.25099477 -0.41885075 0.13999654 -0.06035913 0.19529015 -0.3825021
-0.17283836 0.2807326 0.13666229 -0.26970583 0.1543139 -0.33651716 -0.19222397 0.14253365
0.17179382 0.34218678 0.14391647 -0.3375903 -0.31216338 -0.10223893 0.1813414 -0.16834834
0.28504786 0.31269208 0.0064524347 0.2268254 -0.33047408 -0.001009134 -0.09806118 0.1716094
-0.14427957 0.07428126 -0.24653463 -0.38884458 0.11014322 -0.33531466 0.00013175473 0.09520405
0.03300272 0.025610788 -0.306269 -0.0011665556 -0.22855683 0.31832653 0.14081538 0.36020964
-0.44261506 0.28262118 0.025229169 -0.22889161 -0.3172686 0.1764031 0.024914786 -0.34924832
-0.37041724 -0.20353411 0.22437492 -0.24332058 0.003490121 -0.44630256 -0.10937467 0.10020875
-0.34338906 0.052643593 -0.28477076 -0.21114472 -0.32180396 -0.17994067 0.16894107 -0.42051104
-0.37285346 -0.2656539 0.20774893 0.11504613 0.35147515 0.14389625 0.4259902 -0.0675155
0.097704135 0.02941503 -0.4009705 0.18477038 -0.06385833 0.16748899 -0.1867442 0.2434919
-0.047535323 -0.08516162 -0.31429932 0.40575176 -0.12442858 0.22128688 -0.24180295 0.13408738
-0.08818486 -0.09497225 -0.26406842 0.052120943 0.033567715 -0.201376 -0.36751235 -0.09718207
-0.35643974 0.3045689 -0.43391418 0.17034651 0.11505991 -0.11263272 0.16893272 0.2959893
0.08384857 0.108075485 -0.039823893 0.33368087 0.21817866 0.27938777 -0.02698811 -0.18684138
0.01553504 -0.28197795 0.3937455 -0.07351253 0.388454 -0.1413621 -0.28133854 0.23758546
-0.07696568 0.077909246 -0.11009367 0.052518968 0.1289236 0.043114685 -0.3463478 -0.379151
00000000: 111c 7b3e 1aaa 243e 0b3c 7cbd 23b5 cabe
00000010: 8e41 93be 3da1 ad3e a1e6 ba3d 3be4 d93e
00000020: a9c8 cc3e 7c9e 98be 05d6 8d3d 67c4 c8bd
00000030: a9fb 92be ebd2 5dbe f27e 863d ab92 9c3e
00000040: 6504 733d a2de cdbe 3b9d be3e 44ec 3bbe
00000050: f007 8b3d 02de 80be 9efc d73e dd13 e1bd
00000060: 1966 4f3e 1c22 cd3e 4f41 d83e 5f11 d63e
00000070: 5e70 0a3e 60e3 a33d df40 88be 3433 a0be
00000080: 18a4 25be 180a 50bd fe7c c5bd 54d3 ccbd
00000090: 93e6 c03d 95a5 b4be 0123 453e d4b8 e4be
000000a0: 5b71 883e c9ce c53d 4fa4 223e ce56 c3bb
000000b0: cdfd 993e ebe0 93bd 9b8b 70bd cec6 af3d
000000c0: 2d8c fc3d e438 b5bd c3aa 2c3e 4f38 8a3e
000000d0: cd00 18be 0840 923e 217b 99bd cfe4 913e
000000e0: 528a 9f3c a562 953e 6382 80be 9b73 d6be
000000f0: 415b 0f3e 233b 77bd 24fa 473e 51d7 c3be
00000100: 8afc 30be 2fbc 8f3e 33f1 0b3e e216 8abe
00000110: 7704 1e3e fa4b acbe 5cd6 44be 57f4 113e
00000120: b8ea 2f3e 1b33 af3e d75e 133e a3d8 acbe
00000130: e1d3 9fbe a562 d1bd 8fb1 393e 8263 2cbe
00000140: cbf1 913e 2d19 a03e f26e d33b eb44 683e
00000150: e633 a9be eb44 84ba 4dd4 c8bd 60ba 2f3e
00000160: 06be 13be c620 983d 9373 7cbe a316 c7be
00000170: c592 e13d 5dae abbe a427 0a39 57fa c23d
00000180: dc2d 073d b7cd d13c 4acf 9cbe 1ce7 98ba
00000190: cd0a 6abe b2fb a23e e831 103e 666d b83e
000001a0: 719e e2be b9b3 903e 67ad ce3c 9062 6abe
000001b0: 0871 a2be 04a3 343e 181a cc3c add0 b2be
000001c0: 54a7 bdbe 3f6b 50be 8ac2 653e 0829 79be
000001d0: 84ba 643b c581 e4be d4ff dfbd 3f3a cd3d
000001e0: b1d0 afbe cfa0 573d 79cd 91be 5236 58be
000001f0: 7dc3 a4be 5e42 38be e3fe 2c3e 394d d7be
00000200: a6e6 bebe ca03 88be 23bc 543e 4e9d eb3d
00000210: 8df4 b33e 8a59 133e 631b da3e 9145 8abd
00000220: 1b19 c83d caf7 f03c 014c cdbe 7234 3d3e
00000230: 28c8 82bd 3c82 2b3e df39 3fbe f155 793e
00000240: 66b4 42bd 3769 aebd d7eb a0be b2be cf3e
00000250: 69d4 febd 0799 623e 319b 77be 344e 093e
00000260: 449a b4bd d080 c2bd fa33 87be c57c 553d
00000270: 4d7e 093d 8335 4ebe 942a bcbe 6507 c7bd
00000280: 457f b6be 74f0 9b3e 002a debe 516f 2e3e
00000290: 88a4 eb3d fcab e6bd b3fc 2c3e e98b 973e
000002a0: cdb8 ab3d ae56 dd3d 611e 23bd 38d8 aa3e
000002b0: 3a6a 5f3e ea0b 8f3e 2b16 ddbc 5953 3fbe
000002c0: ae86 7e3c 6a5f 90be 0399 c93e bd8d 96bd
000002d0: 71e3 c63e 3ac1 10be 9b0b 90be 9a49 733e
000002e0: 2fa0 9dbd e28e 9f3d ca78 e1bd 211e 573d
000002f0: 8c04 043e 0699 303d 8054 b1be 1420 c2be

block1.downsample.bias f4 [32]
0.28063032 0.1671073 0.2321194 -0.008771131 0.32226342 -0.05543549 0.33639896 0.21873975
-0.051630016 -0.033122875 -0.08141936 -0.39446276 0.23307307 0.005678453 -0.21794425 0.21774156
0.3306455 -0.08560645 0.3254273 0.11105487 0.44524688 -0.07100879 -0.20170504 -0.3287115
0.35382304 -0.1924182 -0.08716983 0.13313803 0.29375127 -0.08261927 0.12473519 -0.34786695
00000000: c7ae 8f3e 2d1e 2b3e b5b0 6d3e cab4 0fbc
00000010: b6ff a43e 5310 63bd 7c3c ac3e 50fd 5f3e
00000020: ff79 53bd daab 07bd 32bf a6bd 06f7 c9be
00000030: b5aa 6e3e 5112 ba3b c72c 5fbe a5f7 5e3e
00000040: 5e4a a93e 6f52 afbd 689e a63e bc70 e33d
00000050: 66f7 e33e 0e6d 91bd c48b 4ebe e04c a8be
00000060: 4b28 b53e 4709 45be 1986 b2bd 5655 083e
00000070: 9166 963e 4b34 a9bd 2a75 ff3d 9e1b b2be

block2.conv.weight f4 [32, 32, 3]
-0.027520737 0.104768924 0.08943876 -0.096929185 0.10210071 0.08627862 0.05170876 0.0647172
0.003505234 0.064306036 -0.027434224 0.04604201 0.077421695 -0.0906841 -0.038510453 0.011752399
-0.03482738 0.08217608 -0.052947864 -0.052529145 0.060413186 -0.015453977 0.04254051 0.034770556
-0.04316723 0.07244128 -0.014625795 -0.03406129 -0.12601787 0.030387951 -0.0061036674 0.023754664
0.1064711 0.08901865 0.09689449 0.10949364 0.00062305626 0.06958542 0.08556706 0.0071215946
0.049748622 0.07732004 -0.036565147 -0.020543115 0.081216075 -0.0053651286 -0.06084583 -0.0631263
-0.070927 0.08198761 -0.039711192 0.0021225493 0.029841337 0.076069854 -0.12627219 0.03695173
-0.048570853 -0.022380987 -0.10142762 0.09983886 -0.020229902 0.13270326 -0.06747667 -0.04605106
-0.06207245 -0.049039803 -0.007012195 -0.07075315 0.039493922 0.07529551 0.016293798 -0.0040880544
0.04565086 0.011817196 0.07880228 -0.12551151 -0.039742634 0.09262386 0.051283643 0.09965492
0.09845199 0.048012014 -0.031748243 0.015416692 -0.090149835 0.08158027 0.070692435 -0.06393762
-0.04930228 0.06846105 -0.107282616 0.07255059 -0.076866716 -0.016457627 0.03412784 -0.03394291
0.09776795 0.06339409 -0.016950576 -0.023003355 0.0659356 -0.0489914 0.0030334566 0.029419757
0.067886576 0.06590137 0.05940853 0.04353193 -0.047432747 -0.035431538 -0.098466024 -0.13196698
0.031070227 -0.09011589 -0.051527847 0.0069082067 0.08006859 -0.08725299 0.06102162 -0.032372396
0.024930153 0.023727423 -0.066252224 -0.11576003 0.09560707 -0.023485579 -0.053043667 0.04110141
0.013548141 -0.016297838 -0.0037088378 0.025100423 0.06529465 -0.004807227 0.021202167 0.10659142
-0.079659015 0.0025652896 0.032973867 0.05586375 0.039273962 -0.0017085945 -0.11105069 -0.021863306
-0.032603405 -0.009608308 0.07222504 0.08787105 -0.016333444 0.11803374 0.086879976 0.10877535
-0.06734019 0.07058631 -0.015441755 -0.08413726 -0.04479009 -0.0778104 0.081843175 -0.10082023
-0.06980302 -0.05984778 -0.07308845 -0.0703169 -0.03750788 -0.07866169 -0.096566856 0.104250476
0.048800245 0.04819139 0.068328604 -0.086451 0.04300599 0.040534455 0.028216502 0.08229965
-0.04370549 0.0017207811 0.061457112 0.053823613 0.13164254 0.044699278 -0.020418119 -0.07382916
-0.05465291 -0.054742783 0.016014634 -0.06738255 -0.028790748 0.024812402 0.0379231 0.066354975
0.04208272 0.08836509 -0.006960598 -0.09898453 -0.044436228 -0.007094933 0.0076379646 -0.07466509
0.033447452 -0.0107300505 -0.017583331 0.05928162 0.07413449 0.06731465 0.044609148 0.039107047
0.0569444 -0.11495416 0.11016927 -0.008815794 -0.07756258 -0.055642813 -0.0027740628 0.03134805
-0.0030613753 0.022709556 -0.0053364504 0.028103394 0.07891049 0.0016354942 -0.07092475 -0.049522184
-0.03836923 -0.038727667 -0.02863845 0.07255072 -0.039437294 0.022085568 -0.01529948 -0.034094136
-0.114836425 0.045621496 0.12734804 -0.035544764 -0.08323537 -0.026743531 -0.068699725 -0.043230087
0.015637046 0.069988705 -0.041366708 -0.06670749 -0.0668782 0.032877594 -0.08871251 -0.06121374
-0.10028037 0.08985009 -0.078328475 -0.03869318 0.04927396 -0.057234664 0.04261767 0.044230074
00000000: 2b73 e1bc 1791 d63d ab2b b73d cf82 c6bd
00000010: 2d1a d13d d8b2 b03d 91cc 533d 748a 843d
00000020: 11b8 653b e2b2 833d bdbd e0bc 8c96 3c3d
00000030: 448f 9e3d 96b8 b9bd 23bd 1dbd 228d 403c
00000040: 28a7 0ebd ef4b a83d dcdf 58bd cd28 57bd
00000050: d173 773d ad32 7dbc f53e 2e3d 926b 0e3d
00000060: 1fd0 30bd 185c 943d 08a1 6fbc da83 0bbd
00000070: d40a 01be 27f0 f83c 4601 c8bb 2499 c23c
00000080: 850d da3d 694f b63d 9e70 c63d 343e e03d
00000090: 9954 233a cd82 8e3d c83d af3d 445c e93b
000000a0: 36c5 4b3d f859 9e3d 56c5 15bd 094a a8bc
000000b0: 9d54 a63d f6cd afbb 7a39 79bd 5d48 81bd
000000c0: 2d42 91bd 1fe9 a73d 34a8 22bd 781a 0b3b
000000d0: d275 f43c 83ca 9b3d 7f4d 01be b25a 173d
000000e0: 3bf2 46bd 5558 b7bc 49b9 cfbd 5178 cc3d
000000f0: 2eb9 a5bc 5de3 073e 3531 8abd 09a0 3cbd
00000100: ae3f 7ebd f6dd 48bd 8ec6 e5bb 07e7 90bd
00000110: 61c4 213d 8834 9a3d 927a 853c 16f5 85bb
00000120: 65fc 3a3d ea9c 413c 1763 a13d 1786 00be
00000130: 2cc9 22bd 94b1 bd3d cc0e 523d e117 cc3d
00000140: 32a1 c93d 3fa8 443d 720a 02bd 4b96 7c3c
00000150: 7aa0 b8bd 8e13 a73d 32c7 903d baf1 82bd
00000160: 30f1 49bd 4f35 8c3d fdb6 dbbd 6795 943d
00000170: 4c6c 9dbd 25d2 86bc a2c9 0b3d b907 0bbd
00000180: 903a c83d c3d4 813d efdb 8abc 8871 bcbc
00000190: 3e09 873d 35ab 48bd f5cc 463b b401 f13c
000001a0: 1e08 8b3d 4cf7 863d 5c56 733d 894e 323d
000001b0: d748 42bd a920 11bd 8ea8 c9bd 5a22 07be
000001c0: fd86 fe3c ae8e b8bd dd0e 53bd 3d5e e23b
000001d0: 00fb a33d b2b1 b2bd cef1 793d eb98 04bd
000001e0: 523a cc3c 0360 c23c 3faf 87bd 9813 edbd
000001f0: a4cd c33d d464 c0bc 5144 59bd f459 283d
00000200: 06f9 5d3c 0b83 85bc f90f 73bb 679f cd3c
00000210: 34b9 853d f185 9dbb 2bb0 ad3c 9a4c da3d
00000220: 4424 a3bd 6b1e 283b 9b0f 073d 63d1 643d
00000230: bcdd 203d ebf2 dfba 8b6e e3bd ad1a b3bc
00000240: 268b 05bd 2a6c 1dbc b9ea 933d bdf5 b33d
00000250: b7cd 85bc acbb f13d 21ee b13d 9cc5 de3d
00000260: a7e9 89bd 8e8f 903d 6aff 7cbc 2850 acbd
00000270: d075 37bd 0f5b 9fbd 659d a73d d67a cebd
00000280: e3f4 8ebd f222 75bd 66af 95bd 4f02 90bd
00000290: dda1 19bd 6119 a1bd d8c4 c5bd 4681 d53d
000002a0: c4e2 473d 5664 453d deef 8b3d 390d b1bd
000002b0: 0d27 303d 7507 263d 4b26 e73c b88c a83d
000002c0: 8704 33bd d58b e13a 74ba 7b3d 2676 5c3d
000002d0: 4dcd 063e 9716 373d e643 a7bc be33 97bd
000002e0: bbdb 5fbd f839 60bd 1f31 833c ddff 89bd
000002f0: 93da ebbc 6143 cb3c 4155 1b3d 1ee5 873d
00000300: ee5e 2c3d c2f8 b43d ba15 e4bb 67b8 cabd
00000310: c302 36bd 9d7c e8bb e447 fa3b 03ea 98bd
00000320: 3200 093d 18cd 2fbc eb0a 90bc 49d1 723d
00000330: d3d3 973d 43dc 893d 15b8 363d b62e 203d
00000340: 883e 693d 166d ebbd 6da0 e13d 1f70 10bc
00000350: 21d9 9ebd b8e9 63bd 0dcd 35bb d066 003d
00000360: 5ba1 48bb 6409 ba3c 64dd aebb 1739 e63c
00000370: d39b a13d 145e d63a ff40 91bd c6d7 4abd
00000380: 0e29 1dbd e7a0 1ebd 2f9b eabc 7995 943d
00000390: 0089 21bd cbec b43c acaa 7abc 4ba6 0bbd
000003a0: 5c2f ebbd 9bdd 3a3d 8667 023e 6397 11bd
000003b0: 4e77 aabd 4015 dbbc 71b2 8cbd 0812 31bd
000003c0: 4319 803c 3d56 8f3d 2370 29bd f09d 88bd
000003d0: 70f7 88bd a8aa 063d e8ae b5bd 42bb 7abd
000003e0: cb5f cdbd 5303 b83d ae6a a0bd bd7c 1ebd
000003f0: 7ed3 493d e56e 6abd de8f 2e3d 982a 353d

block2.conv.bias f4 [32]
0.061982352 -0.040146958 0.049071275 0.028266422 -0.033355646 -0.023229906 0.044913862 -0.05606761
-0.039932624 0.09234342 -0.09275302 0.050189596 -0.043712996 0.051722363 0.0065855714 -0.005548954
0.014617895 -0.08021979 0.08752561 0.0242322 -0.050244696 0.026205273 0.018386213 0.08173623
-0.0728658 -0.09789354 0.037687406 0.02319051 0.012737601 -0.08634177 0.0004578658 0.044051807
00000000: 35e1 7d3d 2371 24bd f6fe 483d fc8e e73c
00000010: ee9f 08bd a54c bebc 99f7 373d 26a7 65bd
00000020: 6490 23bd 8c1e bd3d 4cf5 bdbd 9b93 4d3d
00000030: 660c 33bd d4da 533d c7cb d73b 00d4 b5bb
00000040: e57f 6f3c 464a a4bd a140 b33d 9b82 c63c
00000050: 62cd 4dbd 71ac d63c af9e 963c 5365 a73d
00000060: aa3a 95bd 697c c8bd 1c5e 1a3d 06fa bd3c
00000070: 5fb1 503c f4d3 b0bd b50d f039 ab6f 343d

block2.norm.weight f4 [32]
1.0092158 1.0708952 1.1019422 1.1029364 1.0498194 1.0438826 0.99723154 1.0637686
1.0644959 0.9903702 0.99209356 1.015543 1.0388091 0.9873939 1.0419676 1.0989232
1.0819819 1.0224901 1.0241938 1.0621934 1.0690544 1.0146701 1.1043737 0.995473
1.0037886 1.0075268 1.0003667 0.9797958 1.0440352 1.0557437 1.0446721 0.9858008
00000000: fc2d 813f 1813 893f 710c 8d3f 052d 8d3f
00000010: 7b60 863f f29d 853f 914a 7f3f 9229 883f
00000020: 6741 883f e788 7d3f d8f9 7d3f 50fd 813f
00000030: b2f7 843f d9c5 7c3f 325f 853f 84a9 8c3f
00000040: 627e 8a3f f5e0 823f c818 833f f4f5 873f
00000050: c6d6 883f b6e0 813f 1e5c 8d3f 52d7 7e3f
00000060: 257c 803f a3f6 803f 040c 803f e6d3 7a3f
00000070: f2a2 853f 9c22 873f d1b7 853f 715d 7c3f

block2.norm.bias f4 [32]
-0.01805538 0.048226967 0.04931925 0.08474343 0.0395713 0.03156426 -0.033315044 0.0443703
0.03549082 -0.020246446 -0.006567785 -0.018993381 0.022855174 -0.040887337 -0.0013251695 0.07863474
0.038833328 -0.0139836455 -0.00015983521 0.035735093 0.060815804 -0.016232414 0.08152371 -0.036169376
-0.0036797072 -0.029935403 -0.03971075 -0.034141894 0.03166268 0.047698658 -0.0090351775 0.022698
00000000: e0e8 93bc a489 453d fb02 4a3d f78d ad3d
00000010: 8415 223d 8749 013d 5b75 08bd a2bd 353d
00000020: d25e 113d e0db a5bc 9336 d7bb 0298 9bbc
00000030: c63a bb3c 7b79 27bd 4fb1 adba 400b a13d
00000040: b20f 1f3d a91b 65bc 7099 27b9 f65e 123d
00000050: fe19 793d d7f9 84bc e7f5 a63d 5726 14bd
00000060: 3e27 71bb 173b f5bc bda7 22bd 5fd8 0bbd
00000070: bab0 013d ab5f 433d 4808 14bc 28f1 b93c

block2.norm.running_mean f4 [32]
0.7684297 -0.25952235 0.077248834 0.31892514 -0.06774086 -0.49202055 0.52138764 -0.46082854
-1.0269274 -0.53118294 -0.19363113 0.20811743 0.61315024 0.32469147 -0.55015635 0.33416867
0.1170403 -0.938727 0.32292432 0.14575604 0.57503587 -0.13080168 -0.2860064 0.041907813
-0.60653687 -0.50062823 0.44247332 -0.7739685 0.0023178214 0.30053884 0.19745183 1.4566058
00000000: cfb7 443f 1de0 84be a334 9e3d 284a a33e
00000010: b8bb 8abd 1eea fbbe a979 053f b8f1 ebbe
00000020: 5b72 83bf 9bfb 07bf 3d47 46be bc1c 553e
00000030: 6af7 1c3f f63d a63e 0cd7 0cbf 2818 ab3e
00000040: d3b2 ef3d 6a50 70bf 5656 a53e 1241 153e
00000050: 8d35 133f e0f0 05be 6e6f 92be 87a7 2b3d
00000060: 0046 1bbf 2c29 00bf dd8b e23e cd22 46bf
00000070: 97e6 173b 3ae0 993e d030 4a3e 0f72 ba3f

block2.norm.running_var f4 [32]
0.22036926 0.19333896 0.06378781 0.092502676 0.15005478 0.20758663 0.152733 0.11713265
0.3074993 0.18404713 0.12168023 0.16329743 0.18441932 0.15412615 0.20464575 0.15926214
0.13065194 0.14831764 0.12664503 0.13711399 0.20265025 0.15144739 0.13286854 0.38516593
0.1476908 0.12472855 0.2121622 0.14607708 0.2896378 0.17810565 0.11851976 0.28101024
00000000: 7ba8 613e a6fa 453e 2fa3 823d 0b72 bd3d
00000010: f6a7 193e 9791 543e 0a66 1c3e 3ee3 ef3d
00000020: 8c70 9d3e da76 3c3e 7c33 f93d 7137 273e
00000030: 6bd8 3c3e 3fd3 1d3e a88e 513e 9d15 233e
00000040: 9fc9 053e 94e0 173e 3caf 013e 9c67 0c3e
00000050: 8c83 4f3e 0615 1b3e b10e 083e 7834 c53e
00000060: 423c 173e af71 ff3d 0c41 593e 3b95 153e
00000070: 684b 943e 5461 363e 7dba f23d 93e0 8f3e

block3.conv.weight f4 [32, 32, 3]
0.072395846 0.039837454 -0.052208997 -0.101432905 0.028913856 -0.098329015 -0.092641585 -0.06397422
-0.02204961 -0.084215894 -0.075423725 0.034938328 0.009498306 -0.07801455 -0.04938782 0.055891782
-0.05482906 0.058868133 -0.08922674 0.027121773 0.12574252 0.02712306 -0.034479685 0.09354679
0.020239089 -0.07899416 -0.018574126 -0.082327515 -0.02344055 0.053997137 -0.10551138 -0.07022525
0.0950134 0.015228826 -0.0015333102 -0.016392367 -0.09216085 -0.052007247 0.03706115 0.088228375
-0.117664605 -0.032549754 -0.051494602 -0.039937377 0.020912502 0.015808577 0.07175779 -0.07184197
0.07716088 -0.06303285 -0.0050140712 -0.064305164 -0.01208183 -0.106770344 -0.06571424 -0.06985056
-0.014403542 0.039747097 -0.061794005 0.003527001 -0.0062929755 -0.050171684 -0.07101752 -0.016674042
0.036511645 -0.084558435 -0.025385026 0.06086058 0.081673 0.005824716 0.049636547 0.05937393
-0.0744777 -0.072710454 0.020480312 0.019820163 0.113191895 -0.04931631 -0.056133468 0.042873662
-0.027479311 0.019566782 -0.04808061 -0.10004627 -0.04109618 0.060321853 0.07762192 0.07104409
-0.044714507 -0.09996337 0.02907032 -0.048094947 0.09820175 -0.03948666 -0.01903345 -0.08069951
0.0004792728 0.1028958 0.033584327 -0.001233659 0.094918795 0.103816435 -0.080106586 0.022795796
-0.0745986 -0.06949487 0.06285993 0.038351443 0.08511902 -0.039455917 -0.115353785 0.008961374
0.0040455637 0.025919493 -0.10005985 -0.013261533 -0.083445534 -0.07260011 -0.00022606223 0.017484242
0.051786955 -0.024482112 0.034361742 0.12217173 0.059527505 -0.034689136 0.0063510737 -0.08609211
-0.032924354 -0.019714724 0.07054271 0.011481091 0.05371778 -0.018714882 0.022193193 0.06397393
-0.0138507215 -0.09486334 0.0032964395 -0.028781464 0.07137304 -0.08709617 0.085143566 -0.055431012
0.11894096 0.0846415 -0.004610136 -0.020662233 0.09634021 0.04333497 0.0042158593 -0.06836859
-0.029700333 0.0028397075 0.10004199 0.012234197 0.05990373 0.016590808 -0.03517925 -0.019968186
-0.06091188 -0.0065254997 -0.046512295 -0.096927926 0.06768964 -0.05190167 0.031475734 -0.030311259
0.04129588 0.07526457 0.070514254 -0.04344604 -0.13443947 -0.043121234 0.010740224 0.063710384
-0.11387811 0.010373883 0.06769776 0.04939722 -0.014639627 -0.033000503 -0.014666252 0.037144747
-0.058034662 -0.008858838 -0.0006579299 0.029711924 -0.049425412 0.018254032 -0.029854154 0.009400921
-0.03821733 0.05369596 0.02692515 0.06923943 -0.077100575 0.07554351 -0.08905464 0.054720663
0.013239549 0.038047723 -0.0025085257 0.07045732 0.104596585 0.031398278 0.022512026 -0.061103534
-0.0605863 0.054523267 -0.04100482 -0.13442372 -0.021228183 0.043403633 -0.029003693 -0.106465176
-0.011737626 0.05789506 0.043451723 0.026163539 0.112995416 0.026346033 0.05236929 -0.030318862
-0.060205225 0.0930088 -0.051503852 0.014009991 0.045926146 0.03937899 -0.080901206 0.08905122
0.076853156 0.022191089 0.023538116 -0.057731558 -0.09850967 -0.02746955 0.056087974 -0.07165506
-0.09611657 0.06617602 -0.008690924 0.039791208 -0.036291897 -0.027323367 0.050453138 0.07500357
-0.05235145 0.08649182 0.045327123 -0.015021822 0.11844759 -0.057261504 0.037973944 0.07937891
00000000: 4644 943d 992c 233d 1ad9 55bd 0ebc cfbd
00000010: c0dc ec3c b960 c9bd dfba bdbd ea04 83bd
00000020: 62a1 b4bc 6279 acbd c177 9abd 7e1b 0f3d
00000030: c89e 1b3c 18c6 9fbd e24a 4abd c8ee 643d
00000040: 7094 60bd b61f 713d 82bc b6bd 7b2e de3c
00000050: a6c2 003e 2e31 de3c 923a 0dbd 7695 bf3d
00000060: 72cc a53c b1c7 a1bd c428 98bc 549b a8bd
00000070: 6506 c0bc 1a2c 5d3d 5a16 d8bd 42d2 8fbd
00000080: 6396 c23d 5382 793c 5af9 c8ba 4949 86bc
00000090: d4be bcbd 8d05 55bd 6fcd 173d 14b1 b43d
000000a0: 24fa f0bd e452 05bd 01ec 52bd 6095 23bd
000000b0: b250 ab3c fd80 813c c0f5 923d e221 93bd
000000c0: 8606 9e3d 5e17 81bd 144d a4bb 6db2 83bd
000000d0: def2 45bc 69aa dabd 3095 86bd cf0d 8fbd
000000e0: d5fc 6bbc dacd 223d b61b 7dbd 4225 673b
000000f0: 4e35 cebb d380 4dbd a271 91bd 0098 88bc
00000100: 3c8d 153d f92c adbd 42f4 cfbc f248 793d
00000110: 2c44 a73d 42dd be3b b14f 4b3d 1432 733d
00000120: c487 98bd 38e9 94bd 54c6 a73c e55d a23c
00000130: 27d1 e73d e6ff 49bd 35ec 65bd 4b9c 2f3d
00000140: 4b1c e1bc 844a a03c 2cf0 44bd 0fe5 ccbd
00000150: 7854 28bd 0c14 773d 3ef8 9e3d 907f 913d
00000160: 8f26 37bd 98b9 ccbd e124 ee3c 35ff 44bd
00000170: 001e c93d c4bc 21bd 0aec 9bbc c945 a5bd
00000180: e846 fb39 08bb d23d b88f 093d bab2 a1ba
00000190: c964 c23d b69d d43d ec0e a4bd 40be ba3c
000001a0: 27c7 98bd 5453 8ebd b5bc 803d 6716 1d3d
000001b0: e152 ae3d 879c 21bd 9b3e ecbd bad2 123c
000001c0: a690 843b 1e55 d43c 2eec ccbd e746 59bc
000001d0: 7ee5 aabd 5eaf 94bd 1e0b 6db9 1d3b 8f3c
000001e0: 8f1e 543d b68e c8bc e6be 0c3d 2c35 fa3d
000001f0: 1dd3 733d 3216 0ebd ab1c d03b 0f51 b0bd
00000200: b0db 06bd c680 a1bc b278 903d 301b 3c3c
00000210: 2d07 5c3d f44f 99bc 80ce b53c c404 833d
00000220: 23ee 62bc b647 c2bd 1409 583b 1bc7 ebbc
00000230: 072c 923d 7a5f b2bd c05f ae3d a10b 63bd
00000240: 5197 f33d 8658 ad3d a010 97bb d843 a9bc
00000250: 044e c53d 0280 313d 3125 8a3b d504 8cbd
00000260: 1d4e f3bc 631a 3a3b d1e2 cc3d f171 483c
00000270: 9d5d 753d 72e9 873c 1e18 10bd 5294 a3bc
00000280: bc7e 79bd dcd3 d5bb ad83 3ebd 2682 c6bd
00000290: dea0 8a3d d896 54bd b3ec 003d 514f f8bc
000002a0: de25 293d 5024 9a3d c769 903d 7af4 31bd
000002b0: 80aa 09be e49f 30bd c4f7 2f3c 977a 823d
000002c0: ed38 e9bd 38f7 293c 20a5 8a3d bd54 4a3d
000002d0: 0cdb 6fbc 892b 07bd b84a 70bc 1725 183d
000002e0: c1b5 6dbd a924 11bc ee78 2cba 6c66 f33c
000002f0: 4d72 4abd 7b89 953c b390 f4bc 5206 1a3c
00000300: c689 1cbd 4cf0 5b3d 2292 dc3c 67cd 8d3d
00000310: e8e6 9dbd 8eb6 9a3d 4762 b6bd c622 603d
00000320: b1ea 583c eed7 1b3d 1466 24bb ed4b 903d
00000330: bc36 d63d 7b9b 003d 246b b83c b347 7abd
00000340: 5729 78bd ca53 5f3d acf4 27bd 5fa6 09be
00000350: bae6 adbc 02c8 313d 2799 edbc 6a0a dabd
00000360: 2c4f 40bc 5f23 6d3d 6ffa 313d eb54 d63c
00000370: 246a e73d a3d3 d73c 2e81 563d 435f f8bc
00000380: c199 76bd 667b be3d b4f5 52bd 298a 653c
00000390: 0e1d 3c3d dd4b 213d 88af a5bd 7c60 b63d
000003a0: 3065 9d3d 16ca b53c 02d3 c03c ed77 6cbd
000003b0: 70bf c9bd d207 e1bc 81bc 653d e3bf 92bd
000003c0: c4d8 c4bd 4b87 873d 6164 0ebc 1bfc 223d
000003d0: d0a6 14bd 41d5 dfbc f3a7 4e3d 799b 993d
000003e0: 796e 56bd a022 b13d efa8 393d 171e 76bc
000003f0: a694 f23d 0a8b 6abd 918a 1b3d 6991 a23d

block3.conv.bias f4 [32]
0.09391923 -0.011954987 0.060427003 -0.05674214 0.023439448 0.09014416 -0.032814063 0.011486796
0.05680238 0.032968596 -0.009081941 0.032332916 0.06052014 0.09587329 -0.09641809 -0.09303985
0.079879634 0.08104451 -0.07723721 0.016300865 0.02303931 -0.050834987 0.09619507 -0.03376607
0.06667425 -0.03444109 0.054929305 0.04513562 0.07103414 -0.020041093 -0.08875648 0.06874775
00000000: ba58 c03d dade 43bc 4e82 773d 726a 68bd
00000010: 1604 c03c 809d b83d 0a68 06bd 1d33 3c3c
00000020: 9da9 683d 140a 073d 6ccc 14bc 856f 043d
00000030: f7e3 773d 3759 c43d d976 c5bd ad8b bebd
00000040: ef97 a33d aafa a53d 8b2e 9ebd 6489 853c
00000050: efbc bc3c 5938 50bd ec01 c53d 4a4e 0abd
00000060: 828c 883d 1a12 0dbd 8dfd 603d 21e0 383d
00000070: 597a 913d 382d a4bc f5c5 b5bd 9fcb 8c3d

block3.norm.weight f4 [32]
0.99020934 1.0956295 1.0321559 1.0888703 1.1246073 1.0981344 1.0109539 1.0749594
1.0778505 1.0718856 1.046073 1.0108 1.0855469 0.99127746 1.0157769 1.1394769
1.072627 0.9834313 1.0054016 1.0177689 1.0872201 1.0675277 1.1062268 1.0021203
1.113161 0.9961672 1.0019569 0.9834465 1.0551339 1.1447611 1.1048514 1.0335237
00000000: 5c7e 7d3f 963d 8c3f af1d 843f 1a60 8b3f
00000010: 22f3 8f3f ab8f 8c3f f066 813f 4598 893f
00000020: 01f7 893f 8c33 893f b8e5 853f e561 813f
00000030: 33f3 8a3f 5cc4 7d3f fa04 823f 61da 913f
00000040: d74b 893f 27c2 7b3f 00b1 803f 4046 823f
00000050: 072a 8b3f bfa4 883f d798 8d3f 7a45 803f
00000060: 0f7c 8e3f d004 7f3f 2040 803f 26c3 7b3f
00000070: a10e 873f 8887 923f c56b 8d3f 814a 843f

block3.norm.bias f4 [32]
-0.016301718 0.06945719 0.017296365 0.07903646 0.07804947 0.050681543 -0.02685043 0.043387588
0.056209423 0.017600704 -0.0062576835 -0.017121738 0.034669545 -0.027214237 -0.017407257 0.09715672
0.03209164 -0.023473594 -0.006878872 -0.010543972 0.06759473 0.015449235 0.080971494 -0.014984806
0.078741625 -0.028309584 -0.03159935 -0.029633349 0.016028753 0.100867055 0.035757322 -0.016414734
00000000: 2e8b 85bc 923f 8e3d 1bb1 8d3c dedd a13d
00000010: 67d8 9f3d 7397 4f3d 6ff5 dbbc 2fb7 313d
00000020: da3b 663d 5a2f 903c 410d cdbb e342 8cbc
00000030: a701 0e3d 64f0 debc aa99 8ebc 1afa c63d
00000040: 8672 033d b24b c0bc 2968 e1bb a0c0 2cbc
00000050: 1b6f 8a3d ca1e 7d3c 62d4 a53d d582 75bc
00000060: 4a43 a13d 80e9 e7bc 526e 01bd a3c1 f2bc
00000070: bb4e 833c 6393 ce3d 4576 123d 3178 86bc

block3.norm.running_mean f4 [32]
-0.4294925 0.09166008 0.18836138 0.10365012 -0.22146532 0.27330709 -1.1037278 -0.28119597
0.033408936 0.19379859 0.032012615 -0.5604849 0.3699761 0.4243066 0.49911293 0.390103
0.04850604 -1.4171396 -0.13917579 -0.268372 0.46688378 -0.6466531 -0.13933001 0.051293433
-0.32726404 -0.9340825 0.016151745 -0.6515529 -0.035087977 -0.26146218 -0.52665854 0.0010335481
00000000: 71e6 dbbe 48b8 bb3d cee1 403e 8446 d43d
00000010: cec7 62be e8ee 8b3e f446 8dbf ebf8 8fbe
00000020: cfd7 083d 2373 463e a91f 033d f07b 0fbf
00000030: 826d bd3e b73e d93e bb8b ff3e 95bb c73e
00000040: 45ae 463d d564 b5bf 1984 0ebe 0e68 89be
00000050: 640b ef3e 0f8b 25bf 87ac 0ebe 1019 523d
00000060: 278f a7be 0820 6fbf aa50 843c 2ccc 26bf
00000070: 69b8 0fbd 5fde 85be 18d3 06bf 1f78 873a

block3.norm.running_var f4 [32]
0.39539513 0.1723389 0.36438546 0.3105533 0.27983505 0.272539 0.5622611 0.19452205
0.2556943 0.20225409 0.23066522 0.48657244 0.23758236 0.3046183 0.17831035 0.19883248
0.16439506 0.5279059 0.20360343 0.3051613 0.24484967 0.3225044 0.19815455 0.31951642
0.28412643 0.3130259 0.26648065 0.2444135 0.23692733 0.19511352 0.16427141 0.25351396
00000000: 3b71 ca3e 9c79 303e bb90 ba3e d800 9f3e
00000010: 8a46 8f3e 3b8a 8b3e 58f0 0f3f ca30 473e
00000020: 5dea 823e b21b 4f3e 8133 6c3e 0620 f93e
00000030: ca48 733e eef6 9b3e fd96 363e be9a 4b3e
00000040: 2e57 283e d724 073f 6b7d 503e 1a3e 9c3e
00000050: dfb9 7a3e 4c1f a53e 07e9 4a3e a897 a33e
00000060: 0579 913e ee44 a03e 2770 883e 8847 7a3e
00000070: 149d 723e d7cb 473e c436 283e 95cc 813e

fc.weight f4 [6, 32]
-0.06778231 0.031729102 0.18594494 -0.064838775 0.2146762 0.07557911 -0.0881699 0.122807816
0.20808528 0.23609443 0.18473724 -0.062077094 -0.117955804 -0.09001945 -0.105058074 -0.103588834
0.23191556 -0.014005931 -0.14754507 -0.018901994 0.102293946 0.0033652044 0.14304966 -0.031676333
0.17260951 -0.0734322 -0.0097150365 -0.10471328 0.081880294 -0.039316054 -0.121895395 -0.14066559
-0.15777358 -0.23160769 0.079056814 -0.23048566 -0.06554388 0.093520485 0.11656472 -0.118704095
0.052276943 0.15733676 -0.077138685 0.007556332 -0.066914976 0.03330146 -0.06356742 -0.23758273
-0.08957351 -0.06368126 0.105167076 0.07619636 -0.24709101 0.009514877 -0.20317328 0.15748563
0.1266754 0.15676351 0.14165223 0.09844097 0.063456915 -0.2134416 -0.12996514 0.14158683
-0.07484972 0.13506794 -0.08482674 0.11948284 -0.009673489 0.20425138 0.2057279 0.17355128
-0.0722685 0.2103341 -0.06343794 0.06462858 -0.15625279 -0.1183743 -0.10354172 0.009458545
0.12016523 0.03521089 0.18712983 0.012799245 0.17035513 0.08778565 0.056180302 -0.06056124
0.032645017 0.07771477 -0.093400836 -0.05616153 -0.06941302 0.038967405 -0.15134397 0.086036175
-0.022878375 0.037415814 -0.041440416 -0.19890012 -0.09024468 -0.062641636 -0.10488277 0.14449342
-0.07667809 0.12665941 0.13648334 -0.09749441 -0.10584556 -0.052907545 -0.024310056 -0.14283472
0.13524984 0.07894405 -0.19103248 -0.20092502 0.019203974 -0.15172936 -0.070569605 -0.12902611
-0.084362425 0.11911655 -0.02664142 -0.059020028 -0.10475229 -0.07978512 -0.06956851 -0.01563602
-0.017277852 0.03220741 -0.032068226 -0.012318452 0.18122786 0.18725371 0.11495079 0.18498975
-0.11851132 -0.17917742 0.062082782 -0.05006498 -0.030701218 -0.06429414 -0.10837172 -0.11460184
-0.14517383 0.07375164 -0.116310224 -0.005346022 -0.073690124 -0.011304563 0.21994138 -0.16536635
-0.1313781 -0.14690082 0.071573235 0.18406118 -0.11923303 0.024754418 0.02847324 -0.2184895
-0.13747177 0.16396591 0.018856648 0.06632583 0.0938465 0.170778 0.0631845 -0.074998714
0.044907115 0.008745564 -0.058643937 -0.09596207 0.20627123 0.125335 -0.17121921 0.1919402
-0.11943618 0.00869448 -0.08859415 0.0486247 0.12368702 -0.1600316 -0.0680527 -0.08619355
0.23183933 -0.14661172 0.12627456 -0.11174769 0.10300622 -0.013414236 0.14528102 0.022928447
00000000: 74d1 8abd 60f6 013d 5a68 3e3e 31ca 84bd
00000010: 14d4 5b3e 38c9 9a3d 6c92 b4bd aa82 fb3d
00000020: 4f14 553e bdc2 713e c22b 3d3e 8d44 7ebd
00000030: d092 f1bd 1e5c b8bd b028 d7bd 6226 d4bd
00000040: 467b 6d3e 2279 65bc 0e16 17be 5bd8 9abc
00000050: 7d7f d13d c38a 5c3b 9c7b 123e 0bbf 01bd
00000060: 8cc0 303e 9f63 96bd d12b 1fbc eb73 d6bd
00000070: dbb0 a73d df09 21bd 4ba4 f9bd a40a 10be
00000080: 668f 21be 912a 6dbe 8ae8 a13d 6f04 6cbe
00000090: df3b 86bd ab87 bf3d 7cb9 ee3d 221b f3bd
000000a0: 5920 563d e31c 213e e3fa 9dbd 1b9b f73b
000000b0: b80a 89bd 1d67 083d a32f 82bd e348 73be
000000c0: 5172 b7bd 526b 82bd d661 d73d d60c 9c3d
000000d0: 6d05 7dbe 49e4 1b3c a80c 50be ea43 213e
000000e0: 32b7 013e 9d86 203e 480d 113e 6b9b c93d
000000f0: b3f5 813d 6f90 5abe 9515 05be 23fc 103e
00000100: cf4a 99bd 404f 0a3e a4b9 adbd 6bb3 f43d
00000110: 8e7d 1ebc 4627 513e 56aa 523e 6db7 313e
00000120: 8201 94bd d361 573e c0eb 81bd fd5b 843d
00000130: bb00 20be 3a6e f2bd ae0d d4bd 03f8 1a3c
00000140: 3019 f63d 4b39 103d f69e 3f3e edb3 513c
00000150: 9371 2e3e f6c8 b33d 511d 663d 100f 78bd
00000160: c8b6 053d ec28 9f3d f048 bfbd a209 66bd
00000170: 6a28 8ebd 499c 1f3d eaf9 1abe bc33 b03d
00000180: 6e6b bbbc 5341 193d 6dbd 29bd 79ac 4bbe
00000190: 34d2 b8bd 424a 80bd c7cc d6bd 15f6 133e
000001a0: 6709 9dbd 01b3 013e 4ac2 0b3e 26ab c7bd
000001b0: 8fc5 d8bd 95b5 58bd e225 c7bc 4443 12be
000001c0: ef7e 0a3e 6bad a13d 059e 43be 4abf 4dbe
000001d0: a751 9d3c f15e 1bbe cc86 90bd 6c1f 04be
000001e0: 35c6 acbd 61f3 f33d 1b3f dabc fcbe 71bd
000001f0: 5e88 d6bd 6266 a3bd ef79 8ebd 1c17 80bc
00000200: 488a 8dbc ebeb 033d f959 03bd 55d3 49bc
00000210: cc93 393e 70bf 3f3e 526b eb3d f46d 3d3e
00000220: 10b6 f2bd 497a 37be 844a 7e3d f010 4dbd
00000230: 1f81 fbbc a5ac 83bd fef1 ddbd 5fb4 eabd
00000240: 73a8 14be 1a0b 973d 0e34 eebd af2d afbb
00000250: d9ea 96bd c636 39bc 5038 613e cc55 29be
00000260: fb87 06be 2b6d 16be fd94 923d 897a 3c3e
00000270: 7230 f4bd c7c9 ca3c b640 e93c b6bb 5fbe
00000280: 66c5 0cbe aee6 273e 4279 9a3c d6d5 873d
00000290: 9832 c03d 6ee0 2e3e e066 813d ed98 99bd
000002a0: 86f0 373d 8e49 0f3c a034 70bd c387 c4bd
000002b0: c438 533e d157 003e 1754 2fbe f98b 443e
000002c0: f59a f4bd 4b73 0e3c da70 b5bd b22a 473d
000002d0: 9f4f fd3d 53df 23be 375f 8bbd 3e86 b0bd
000002e0: 4a67 6d3e 6221 16be 1e4e 013e f9db e4bd
000002f0: edf4 d23d 62c7 5bbc 8cc4 143e 70d4 bb3c

fc.bias f4 [6]
0.15591958 0.11805322 0.07010216 -0.053732634 0.09838809 0.12072165
00000000: 62a9 1f3e e3c5 f13d b991 8f3d c016 5cbd
00000010: b27f c93d ea3c f73d
